models/tabuk.pth (torch, 414427 bytes, 14 tensors)

conv1.weight f4 [32, 3, 3, 3]
0	0xbe3137fe	-0.17306516
1	0xbe2dcd35	-0.16972812
2	0xbe1a99a2	-0.15097669
3	0xbe2db6cf	-0.16964267
4	0xbe441bd3	-0.19151239
5	0x3e1c4fd0	0.15264821
6	0x3d5a74fe	0.05333423
7	0xbe194a88	-0.14969838
8	0x3e315447	0.17317306
9	0xbe415bf7	-0.18882738
10	0x3e1654f3	0.14680843
11	0x3e196610	0.1498034
12	0xbe44551d	-0.19173093
13	0xbd5993ce	-0.053119473
14	0x3e16dc8e	0.14732572
15	0x3e1dc4f4	0.15407163
16	0x3c4637fd	0.01209831
17	0xbe39f385	-0.18159302
18	0xbd38a422	-0.045078404
19	0xbb9ad7fd	-0.004725455
20	0x3dedf800	0.11619568
21	0xbdf68327	-0.12036734
22	0xbcd562df	-0.026048122
23	0xbddbb81b	-0.10728475
24	0xbe241f3e	-0.16027543
25	0x3e3af25a	0.18256512
26	0x3d3c2edb	0.045943122
27	0xbd99f367	-0.075171284
28	0x3d31625a	0.043306686
29	0x3e3127d5	0.17300351
30	0x3e1accb2	0.15117148
31	0x3de7796b	0.113024555
32	0xbe15f6c2	-0.14644912
33	0xbe128c8f	-0.14311431
34	0xbdcfabf4	-0.10140219
35	0xbdfbbfc2	-0.12292434
36	0x3e27a982	0.16373256
37	0xbd310348	-0.04321602
38	0x3db01bef	0.08599078
39	0xbd628470	-0.055302083
40	0xbd8ccf7c	-0.06875512
41	0x3c2a16dc	0.010381427
42	0x3be2f5ad	0.0069262595
43	0x3e47045f	0.19435261
44	0x3e3ddbc8	0.18540871
45	0xbe24fb68	-0.16111529
46	0xbdb3501f	-0.08755516
47	0xbd33e08b	-0.043915313
48	0x3d881ff3	0.06646719
49	0xbe181505	-0.14851768
50	0x3e47e919	0.19522513
51	0x3bbaee28	0.00570466
52	0x3d83b810	0.064315915
53	0xbe357be1	-0.17723037
54	0x3d151cd4	0.036404446
55	0x3c55ba0c	0.013044845
56	0x3d63991e	0.055565946
57	0xbe2c0117	-0.1679729
58	0x3d4baeaf	0.049727138
59	0xbd4117a0	-0.04714167
60	0xbdfc0564	-0.12305716
61	0x3e4043ce	0.18775865
62	0xbe3411b1	-0.17584874
63	0xbc322525	-0.010873114
64	0xbe03703c	-0.12835783
65	0xbdb537c0	-0.08848524
66	0xbe1e01a3	-0.15430312
67	0xb8d71bc0	-0.00010257168
68	0xbe2940fd	-0.16528697
69	0xbdb0fb83	-0.08641722
70	0xbcada4c0	-0.021196723
71	0x3e00fe29	0.12596954
72	0xbddda10e	-0.10821734
73	0xbe2bfb0a	-0.16794983
74	0xbc9503c8	-0.01819028
75	0x3d8227e4	0.06355265
76	0x3e0b592f	0.1360824
77	0x3d18ed9b	0.037335973
78	0x3e224bdf	0.15849255
79	0xbdf0fe4a	-0.11767252
80	0xbc020ed7	-0.007938108
81	0x3e3665c8	0.17812264
82	0xbb746e51	-0.00372972
83	0x3cedeba2	0.029043023
84	0xbc73d8dc	-0.014883246
85	0xbdef745a	-0.11692114
86	0x3e098523	0.13429694
87	0x3db7cf8f	0.089751355
88	0xbe0467be	-0.129302
89	0xbe15daa1	-0.14634182
90	0x3db0d319	0.08634014
91	0xbd836f2d	-0.064176895
92	0x3e5f9e0c	0.21837634
93	0x3de21098	0.11038321
94	0x3d73019f	0.059327718
95	0xbd3a0b88	-0.045421153
96	0x3e5f7546	0.2182208
97	0xbde0151f	-0.109415285
98	0xbb1e8ae4	-0.0024191672
99	0xbd9eb687	-0.07749658
100	0xbde679f1	-0.11253727
101	0xbd048725	-0.032355446
102	0x3c9cb351	0.019128473
103	0xbd87bea2	-0.06628157
104	0xbe216f81	-0.15765192
105	0xbe08c055	-0.13354619
106	0xbe247b70	-0.16062713
107	0xbc30659b	-0.010766412
108	0x3e348d67	0.17632066
109	0x3e11a0b0	0.14221454
110	0x3da46726	0.080274865
111	0x3df80ac1	0.12111426
112	0x3c328893	0.01089682
113	0x3e3ca72c	0.18423146
114	0xbe426fc3	-0.18987946
115	0x3dac87ac	0.08424315
116	0xbd8a1796	-0.0674278
117	0x3d8e8d90	0.06960595
118	0xbe41fdb3	-0.18944435
119	0x3ddccc45	0.10781149
120	0x3d6cec15	0.057842333
121	0xbd9b525c	-0.07584068
122	0x3dcb702c	0.099335045
123	0x3d4bb38c	0.049731776
124	0xbe42f0f0	-0.19037223
125	0x3e391b6a	0.18076864
126	0x3e1d6239	0.153695
127	0xbccc64e7	-0.024950458
128	0x3e309705	0.1724511
129	0xbca6c8a9	-0.020359354
130	0xbdde6030	-0.1085819
131	0xbdb76c42	-0.089561954
132	0xbc624566	-0.013810491
133	0xbbee3243	-0.0072691753
134	0xbe38eddc	-0.18059486
135	0x3caabc4a	0.020841736
136	0xbe0be067	-0.13659821
137	0x3e415f05	0.18883903
138	0x3da004f6	0.07813446
139	0x3de8eb32	0.11372985
140	0x3e1b1432	0.15144423
141	0x3cf41075	0.029793004
142	0x3deaced5	0.11465231
143	0x3e3ae647	0.18251906
144	0x3dc6fe5b	0.09716483
145	0xbe012d2c	-0.12614888
146	0xbd6339fd	-0.055475224
147	0xbe139011	-0.14410426
148	0x3c97e3dc	0.018541269
149	0xbdcb3403	-0.0992203
150	0xbd5f8173	-0.05456681
151	0x3d568c01	0.052379612
152	0x3d968693	0.07349887
153	0xbdad8e46	-0.08474402
154	0x3dcd4f5a	0.10024901
155	0x3e2b05c8	0.16701424
156	0xbdc7311f	-0.09726166
157	0x3da27255	0.07931963
158	0x3e0bb467	0.13643037
159	0xbe2cf401	-0.16889955
160	0x3e4251e9	0.18976559
161	0x3d70ff61	0.0588373
162	0xbcaefe49	-0.021361487
163	0xbe1af166	-0.15131149
164	0x3d52e96c	0.05149214
165	0xbe1eb437	-0.15498434
166	0x3dc982e3	0.09839418
167	0xbdb91c42	-0.09038593
168	0x3d1cbadb	0.038264137
169	0xbde3e80a	-0.11128242
170	0xbdfa2ec0	-0.12215948
171	0x3e3de4d0	0.18544316
172	0xbc147b45	-0.009062593
173	0xbd59b84b	-0.05315427
174	0x3d9b9707	0.075971656
175	0xbd647efa	-0.055785157
176	0x3e394f75	0.18096717
177	0x3dc6f722	0.097151056
178	0x3d754931	0.059884254
179	0xbe2b7654	-0.16744357
180	0x3df8121e	0.121128306
181	0x3d28a97e	0.041177265
182	0x3db3e602	0.08784105
183	0x3de81f36	0.11334078
184	0xbd9837d3	-0.074325226
185	0x3dcb8391	0.09937204
186	0x3df31420	0.11869073
187	0x3d82fe4d	0.0639616
188	0xbdd26922	-0.10273959
189	0x3c3be668	0.011468507
190	0xbbef110a	-0.0072957324
191	0xbe0190c2	-0.12652877
192	0xbe27d9d7	-0.16391693
193	0x3e265118	0.16241872
194	0x3e4a2054	0.19738895
195	0xbdaf5547	-0.08561187
196	0x3d9ddbdd	0.07707951
197	0xbddf8069	-0.10913164
198	0xbe0d18a4	-0.13778931
199	0x3b40cc05	0.002941848
200	0x3b12f3d1	0.0022423158
201	0x3e20326d	0.15644236
202	0xbc064511	-0.008195178
203	0x3d3b2cb3	0.045696925
204	0xbe1b7b5f	-0.15183781
205	0x3d06be8d	0.032896567
206	0x3defbd97	0.11706083
207	0x3e098539	0.13429727
208	0x3dc6680a	0.096878126
209	0x3d70555b	0.05867515
210	0xbe17a37b	-0.14808457
211	0x3d996801	0.0749054
212	0xbe164b52	-0.1467717
213	0xbcfb681b	-0.03068929
214	0x3de20a8a	0.110371664
215	0x3a57134f	0.00082044763
216	0x3da006b2	0.07813777
217	0x3dff493d	0.12465141
218	0xbe0244fb	-0.12721626
219	0x3d9e1704	0.07719234
220	0x3d9a68dc	0.075395316
221	0x3e0b57b2	0.13607672
222	0xbe2898b3	-0.164645
223	0xbdb0f277	-0.086399965
224	0x3e153523	0.14571051
225	0xbe527f91	-0.20556475
226	0x3e31f301	0.17377855
227	0x3d0822bb	0.033236247
228	0xbe4db861	-0.20089866
229	0xbe00b6c3	-0.12569718
230	0x3d377747	0.044791486
231	0xbe46f7b3	-0.19430427
232	0xbe48d57e	-0.19612691
233	0x3e302711	0.17202403
234	0x3dc321fe	0.09527968
235	0x3dbff869	0.09373552
236	0xbe3fe97e	-0.18741414
237	0x3e061b70	0.13096404
238	0x3db22847	0.086990885
239	0x3d9d5dae	0.076838836
240	0x3debb0e8	0.115083516
241	0x3da0192d	0.07817302
242	0xbe42af31	-0.19012143
243	0xbd8311c7	-0.06399875
244	0x3def9be3	0.11699655
245	0xbd1919c1	-0.037378076
246	0x3e0c8983	0.13724332
247	0xbd836199	-0.064151
248	0x3e225c06	0.15855417
249	0xbe1d83ff	-0.15382384
250	0xbe044543	-0.12917046
251	0xbd22a40f	-0.03970724
252	0x3d86ed37	0.06588214
253	0x3e3106b9	0.1728772
254	0xbe05effb	-0.13079827
255	0x3e206fe3	0.15667681

conv1.bias f4 [32]
0	0x3e470de4	0.19438893
1	0xbcc5cd1c	-0.024145655
2	0x3b514e0a	0.0031937384
3	0xbdbe6df8	-0.092983186
4	0xbe0c509d	-0.13702627
5	0xbe20a8e0	-0.1568942
6	0x3e2f463e	0.17116639
7	0xbdb403b6	-0.0878977
8	0x3cf3b6d7	0.02975027
9	0xbdb7c799	-0.08973617
10	0xbc99650f	-0.018724946
11	0xbe300778	-0.17190349
12	0xbe4a94d4	-0.19783336
13	0x3d416ca9	0.047222767
14	0x3cf7e510	0.030260593
15	0x3bb3e488	0.0054898895
16	0xbd840300	-0.06445885
17	0xbd12ed1c	-0.035870656
18	0xbe50e30e	-0.20399114
19	0xbcb85dcd	-0.022505665
20	0xbe1e034e	-0.15430948
21	0xbd5f3104	-0.054490104
22	0xbde94c0d	-0.11391459
23	0xbe14ea58	-0.1454252
24	0xbe327fd6	-0.17431578
25	0x3e28d94c	0.16489142
26	0x3cbb8aef	0.022893397
27	0xbd73e521	-0.059544686
28	0x3da5ac33	0.08089485
29	0xbe3a8326	-0.18214092
30	0xbd32018a	-0.0434585
31	0xbd6a9cc2	-0.057278402

conv2.weight f4 [64, 32, 3, 3]
0	0xbd1aacb7	-0.03776237
1	0xbd880c3b	-0.06642958
2	0x3ca6cdcb	0.020361802
3	0x3d1dbbb6	0.038509093
4	0x3c29675e	0.010339586
5	0xbd36283f	-0.044471975
6	0xbd27ce39	-0.040968154
7	0xbd6d13d8	-0.057880253
8	0xbd04a160	-0.03238046
9	0x3cacaf38	0.021079645
10	0x3b6d917d	0.0036250048
11	0x3c2639c4	0.010145608
12	0x3d84f0c5	0.06491236
13	0xbc03df0e	-0.008048786
14	0xbd37d02d	-0.044876266
15	0xbd378886	-0.044807933
16	0xbcadc7ad	-0.021213377
17	0xbd40a7d8	-0.04703507
18	0x3d5c34e4	0.053761378
19	0x3d6b6e31	0.057478134
20	0xbc4b75c0	-0.0124182105
21	0xbbb3fa1f	-0.0054924632
22	0xbcfde373	-0.030992245
23	0xbd5419e7	-0.051782515
24	0x3c280554	0.010255177
25	0x3c4cfb2a	0.012511054
26	0x3d555ca9	0.05209032
27	0xbcc13c5f	-0.023588357
28	0x3bd8e32b	0.0066188774
29	0x3c68d194	0.014210124
30	0xbd13a3d7	-0.03604492
31	0x3ca4aca2	0.020101849
32	0xbd255150	-0.04036075
33	0xbcf68aa0	-0.030095398
34	0x3d244cf1	0.04011244
35	0x3af769aa	0.0018876095
36	0x3cd667f0	0.026172608
37	0x3d30d4c3	0.043171655
38	0xbd05446d	-0.03253596
39	0x3d21331b	0.03935538
40	0x3cc5485f	0.02408236
41	0xbca270c9	-0.01982917
42	0x3c4db3b8	0.012555055
43	0xbbbdbc23	-0.00579025
44	0x3cc28b7d	0.023748154
45	0x3c944a93	0.018101966
46	0x3c04ef76	0.008113733
47	0xbd131f6f	-0.03591865
48	0xbd2e53e9	-0.04256049
49	0x3d5fc253	0.05462868
50	0xbd060fc7	-0.03272989
51	0x3d2a8aa8	0.04163614
52	0x3cdf70e4	0.02727551
53	0x3d68ddb3	0.056852054
54	0x3c3c77c9	0.011503168
55	0xbd6821b8	-0.05667278
56	0xbd594124	-0.05304064
57	0x3abc0148	0.0014343644
58	0xbd5df502	-0.054188736
59	0xbcda62af	-0.026658384
60	0x3d2c3499	0.04204235
61	0xbcdbef8e	-0.026847627
62	0xbcb69b67	-0.022290898
63	0xbc650d7f	-0.0139802685
64	0xbc324b8a	-0.010882268
65	0x3d6a2e56	0.057173096
66	0x3d17a044	0.037018076
67	0xbc97e505	-0.018541822
68	0x3d766112	0.060151167
69	0x3d92d0ce	0.071687326
70	0x3c1673fc	0.009182926
71	0x3d02a1fb	0.031892758
72	0xbcf02229	-0.029313164
73	0x3d52b14a	0.051438607
74	0x3cb10b7c	0.021611921
75	0x3d647c89	0.05578283
76	0xbcccc1cc	-0.024994753
77	0x3b8a9629	0.0042293263
78	0x3d5ac61f	0.0534116
79	0x3cbefffc	0.023315422
80	0x3d2edae0	0.042689204
81	0xbc83fee1	-0.016112747
82	0x3d8997b1	0.06718386
83	0x3d64695c	0.05576454
84	0x3bd1a53f	0.0063978727
85	0x3da1de63	0.07903745
86	0xbcdf67fd	-0.027271265
87	0x3b4b1bcd	0.0030991912
88	0x3d29789e	0.041374795
89	0x3d95d11c	0.07315275
90	0x3d332b1a	0.043742277
91	0xbccc338c	-0.024926923
92	0xbccffb54	-0.025388397
93	0xbc05bd0a	-0.008162746
94	0x3c8a5e86	0.016890775
95	0xbccd9c7a	-0.025099028
96	0xbd4af893	-0.049553465
97	0xbd3b60d2	-0.045746632
98	0xbbd969f4	-0.006634945
99	0xbb94c8d2	-0.004540541
100	0xbcadb5ef	-0.021204917
101	0xbc945681	-0.018107655
102	0xbbe5db7f	-0.0070146914
103	0x3d3119d2	0.043237515
104	0x3d9388e9	0.07203848
105	0x3d6ce904	0.05783941
106	0x3982a786	0.00024920347
107	0x3ca28d55	0.019842783
108	0x3d8ea1af	0.069644324
109	0x3d4e3114	0.050339773
110	0xbc39863a	-0.011323506
111	0x3d5eac50	0.05436355
112	0x3d0041de	0.031312816
113	0xbd09e7ea	-0.033668436
114	0xbc830836	-0.015995126
115	0x3d56308c	0.05229239
116	0x3c528927	0.0128500825
117	0x3c730694	0.014833111
118	0x3d2195de	0.039449565
119	0xbd6ae35a	-0.057345726
120	0xbce2d110	-0.02768758
121	0xbd2d062a	-0.042242207
122	0xbc2340d1	-0.009964184
123	0x3ccc5f2c	0.024947725
124	0xbcf9e803	-0.03050614
125	0x3c966f39	0.018363582
126	0x3cbe9372	0.023263667
127	0xbc110ba7	-0.008852876
128	0x3d1bda06	0.03804972
129	0xbd0a08ef	-0.033699926
130	0x3d22542b	0.03963105
131	0x3d340ed3	0.04395945
132	0x3cd84e80	0.02640462
133	0x3d52e0ce	0.05148392
134	0x3d643285	0.05571224
135	0xbc4bc341	-0.012436689
136	0xbcdc9dd6	-0.02693073
137	0xbd432b61	-0.04764879
138	0xbcf8522e	-0.030312624
139	0xbc9598ad	-0.018261278
140	0x3b7aba6a	0.0038258084
141	0x3d2f37d2	0.042777844
142	0xbc8aa584	-0.016924627
143	0x3cb88f48	0.02252926
144	0x3cee3d1b	0.029081872
145	0x3d5c48f4	0.05378051
146	0xbd293baf	-0.041316684
147	0x3c3d4220	0.01155141
148	0x3d339fff	0.043853756
149	0x3c107eb7	0.008819274
150	0xbd2b9c61	-0.04189718
151	0x3c75849f	0.014985233
152	0x3d639968	0.05556622
153	0x3bdf7091	0.006818839
154	0x3cec01ea	0.028809506
155	0xbd57d23a	-0.052690722
156	0x3c9add36	0.01890431
157	0x3d016280	0.031588078
158	0xbcdda688	-0.027056947
159	0xbbbf46a5	-0.005837279
160	0x3ce242b8	0.027619705
161	0x3d14ce1b	0.03632937
162	0xbcb02909	-0.021503942
163	0x3ac879f7	0.0015295137
164	0x3cd501ac	0.026001774
165	0xbd03c8ee	-0.032174043
166	0xbccfe026	-0.025375437
167	0x3cc9b0e0	0.024620473
168	0x3d7e49a4	0.062081948
169	0xbcdd2686	-0.026995908
170	0x3d86a0d1	0.06573642
171	0xbd2d8ef4	-0.04237266
172	0xbd521ab9	-0.051295016
173	0x3d1ca6d1	0.038245026
174	0x3c73d220	0.014881641
175	0x3cf8017e	0.030274149
176	0xbd396d39	-0.04527018
177	0x3bac306b	0.0052547953
178	0xbd4a3749	-0.04936913
179	0xbd288928	-0.041146427
180	0x3d3f7532	0.046742626
181	0xbb867fc5	-0.004104587
182	0xbd0d4d69	-0.034497652
183	0x3b804e2b	0.0039155683
184	0x3d754058	0.059875816
185	0x3cdd02ad	0.026978815
186	0x3d71587c	0.058922276
187	0x3d2bab71	0.041911546
188	0xbbbb49ef	-0.0057156007
189	0xbc031ca9	-0.008002439
190	0x3cc20a79	0.023686634
191	0x3cb70404	0.022340782
192	0x3c85a6af	0.016314832
193	0xbd3dff61	-0.046386126
194	0x3cf042c8	0.029328719
195	0xba218fe2	-0.0006163103
196	0x3c94d4c9	0.01816787
197	0x3cef0e42	0.029181603
198	0x3d6de54e	0.05808001
199	0xbcb18d56	-0.02167384
200	0xbd310cd4	-0.043225124
201	0xbd401b25	-0.046900887
202	0xbd2eb308	-0.042651206
203	0x3c249537	0.010045341
204	0x3ba221c2	0.004947872
205	0x3d7b8a40	0.061411142
206	0xbca861ea	-0.020554502
207	0xbcbf985a	-0.023388077
208	0xbbe7bfba	-0.007072416
209	0x3c6a80f8	0.014312975
210	0xbd09f810	-0.033683836
211	0xbbb8b176	-0.0056363894
212	0xbccd2a23	-0.025044506
213	0x3d329f14	0.04360874
214	0x3c8717a7	0.01649077
215	0xbcc03a9c	-0.023465447
216	0xbce20363	-0.027589506
217	0x3d68bdbc	0.05682157
218	0xbcf4bfef	-0.029876677
219	0xbd0de088	-0.034637958
220	0xbc2dc991	-0.010607139
221	0xbb9a2363	-0.0047039255
222	0x3d46e1cb	0.048555177
223	0xbd27e0d7	-0.04098591
224	0x3d2c39e1	0.042047385
225	0xbd576ef8	-0.052596062
226	0x3c94cf04	0.018165119
227	0x3cc224b2	0.023699138
228	0x3d21d7b6	0.03951236
229	0xbcc7219b	-0.024308017
230	0xbc70a73a	-0.014688307
231	0x3ca6c0d1	0.020355614
232	0x3d01bda1	0.031674985
233	0xbd10cbeb	-0.03535072
234	0xbcadc070	-0.021209925
235	0x3b949922	0.0045348564
236	0xbc6c4508	-0.014420755
237	0xbce648fb	-0.028110972
238	0xbd731777	-0.05934855
239	0x3cfd5081	0.030922176
240	0x3d450404	0.048099533
241	0x3d1d9860	0.038475394
242	0xbd6f69e2	-0.058450587
243	0xbcdcd926	-0.026959013
244	0xbd0b161c	-0.033956632
245	0xbd357971	-0.04430527
246	0x3c859a04	0.016308792
247	0xbd0d06d7	-0.03443035
248	0xbc9c6fa8	-0.01909621
249	0x3d444048	0.047912866
250	0x3d804bef	0.06264483
251	0x3c6f1a52	0.014593678
252	0x3bb824cd	0.0056196214
253	0xbbe06f6f	-0.0068492214
254	0xbc692a6e	-0.014231307
255	0xbd80ec6a	-0.062950924

conv2.bias f4 [64]
0	0xbce99408	-0.02851297
1	0x3cfa57b5	0.0305594
2	0xbbe6d58e	-0.0070445007
3	0xbccc588d	-0.024944568
4	0xbc1c0ec7	-0.009525008
5	0xbd65e129	-0.056122933
6	0x3d320560	0.043462157
7	0xbd5453a0	-0.051837564
8	0xba4d148a	-0.000782319
9	0xbc0666b0	-0.008203194
10	0x3d4eda76	0.05050131
11	0xbce4ec27	-0.027944637
12	0xbc635c2a	-0.013876954
13	0xbba5d4cf	-0.005060769
14	0xbccbf6fe	-0.024898048
15	0xbd42d09e	-0.047562234
16	0x3a0de9ec	0.000541358
17	0x3c930020	0.017944396
18	0xbd325129	-0.04353443
19	0xbce6e243	-0.028184062
20	0xbd864b0d	-0.065572836
21	0x3cf18bff	0.0294857
22	0xbb6efb81	-0.0036465826
23	0x3ce7d28b	0.028298637
24	0xbd3c6c5d	-0.04600178
25	0x3c35e792	0.011102574
26	0xbca9f8bc	-0.020748489
27	0xbd850611	-0.06495298
28	0x3d857587	0.06516557
29	0xbbcaaf22	-0.0061854282
30	0x3d4f63cb	0.05063228
31	0x3d812e14	0.06307617
32	0x3d88fb91	0.066886075
33	0xbc241773	-0.010015356
34	0x3c7b44fd	0.015336272
35	0xbc42ffce	-0.011901809
36	0xbd281ac0	-0.041041136
37	0x3cd5c665	0.026095578
38	0x3cba2616	0.022723239
39	0xbd7c9f7b	-0.06167553
40	0xbd61240a	-0.05496601
41	0x3d9c0504	0.07618144
42	0xbcde9d88	-0.027174726
43	0xbd1c0d32	-0.03809852
44	0xbccecfb5	-0.025245527
45	0x3d5e0de9	0.054212485
46	0xbc4ca3dc	-0.012490239
47	0xbae44828	-0.0017416524
48	0x3bfd026d	0.0077212364
49	0xbcedb006	-0.029014599
50	0xbc7626c2	-0.015023889
51	0x3c7486e3	0.014924738
52	0x3d85d70d	0.06535158
53	0x3d8f250b	0.06989487
54	0xbd088695	-0.033331472
55	0xbbf3ac22	-0.0074362913
56	0x3cda3606	0.026637089
57	0xbc91940a	-0.017770786
58	0x3d7261b8	0.059175223
59	0xbd34e169	-0.04416028
60	0xbd8c06cf	-0.06837236
61	0x3d3f81d6	0.04675468
62	0xbb42e68f	-0.0029739474
63	0xbc6d17e0	-0.014471024

conv3.weight f4 [32, 64, 3, 3]
0	0xbd074a57	-0.03302988
1	0xbb8088bb	-0.0039225495
2	0x3a6a5a7e	0.0008939876
3	0x3c831fb4	0.016006328
4	0x3d3189e0	0.04334438
5	0x3cffdcf0	0.03123328
6	0x3d1b0cca	0.037853993
7	0xbca10132	-0.01965389
8	0xbc3ffde7	-0.01171825
9	0x3c517f5f	0.012786715
10	0xba698280	-0.00089076906
11	0x3c134bd3	0.008990246
12	0x3d2da17d	0.042390335
13	0xbb1a9127	-0.0023585053
14	0xbd22a248	-0.039705545
15	0xbc8283d8	-0.015932009
16	0x3bff47de	0.0077905497
17	0x3c75c12f	0.014999672
18	0xbc915cc0	-0.017744422
19	0x3cc02988	0.023457304
20	0x3cea87fd	0.028629297
21	0x3bef4050	0.007301368
22	0xbcf7cb95	-0.030248443
23	0xbd3aa64f	-0.04556876
24	0xbbc20caa	-0.00592192
25	0xbc8d2f7d	-0.017234558
26	0x3ce15282	0.027505163
27	0x3cf5063e	0.029910203
28	0x3c4717d5	0.012151678
29	0x3b6d524a	0.0036212378
30	0xbd22d6b1	-0.039755527
31	0xbc5fdb0e	-0.013663067
32	0x3d316dfb	0.043317776
33	0x3c8e2cda	0.017355371
34	0xbcca1d91	-0.024672301
35	0x3d131a7a	0.035913922
36	0xbd0e8141	-0.034791235
37	0x3d441da1	0.04787982
38	0x3c5179a3	0.012785348
39	0x3cc2da76	0.02378581
40	0xbc776847	-0.015100545
41	0xbcf30cd1	-0.029669197
42	0x3c09192d	0.008367819
43	0xbcaa8180	-0.020813704
44	0x3cafe065	0.021469304
45	0xbcb5605e	-0.022140678
46	0x3d0d03f4	0.034427598
47	0x3be78dc0	0.0070664585
48	0x3d09186e	0.033470564
49	0xbcf12170	-0.02943489
50	0x3c3e673f	0.0116212955
51	0x3d337c23	0.043819558
52	0x3d0907c9	0.03345469
53	0x3c7c51f3	0.015400398
54	0xbd07a21a	-0.033113576
55	0xbcfa8f5c	-0.030585937
56	0xbc913901	-0.017727377
57	0xbc5c0c32	-0.013430642
58	0x3a379069	0.0007002415
59	0x3b87e40f	0.0041470597
60	0xbd29f10a	-0.04148964
61	0x3c760734	0.015016366
62	0x3cb5e975	0.022206048
63	0x3c1c737f	0.009549021
64	0xbbad94de	-0.0052972874
65	0xbc9f45c5	-0.019442448
66	0x3d33b21b	0.043871026
67	0xbcd086c5	-0.025454888
68	0xbaa6fab7	-0.0012739514
69	0x3c448f41	0.011997045
70	0x3b684d32	0.0035446403
71	0xbd379035	-0.04481526
72	0x3c287ab6	0.010283163
73	0xbb9ea8a0	-0.004841879
74	0x3ce0685f	0.027393518
75	0x3c95c8c9	0.018284218
76	0xbcdaf7d6	-0.026729506
77	0x3bcd9fea	0.0062751668
78	0xbbd578cc	-0.0065146443
79	0x3d29f158	0.04148993
80	0xbc675caf	-0.014121219
81	0x3c6b6688	0.014367707
82	0xba9d21ba	-0.0011988201
83	0xbc16b1af	-0.0091976365
84	0xbb9ce47c	-0.0047879796
85	0xbcab9503	-0.020945078
86	0x3bfa7677	0.0076435166
87	0xbc1bac13	-0.009501475
88	0x3ad65168	0.0016351165
89	0xbd4d004c	-0.05004911
90	0xbc2364e6	-0.0099727865
91	0xbcba5bf1	-0.02274892
92	0xbce8ca26	-0.028416704
93	0x3c74befd	0.014938113
94	0xbcb468ee	-0.02202269
95	0xbcef4243	-0.0292064
96	0x3d2e0e1b	0.04249392
97	0xbcd579ca	-0.02605905
98	0x3ba01d8b	0.0048863343
99	0x3c1be7ca	0.009515712
100	0x3cd3f30e	0.025872733
101	0x3ca6716a	0.020317752
102	0x3da2e8f2	0.07954587
103	0x3d1d0083	0.038330566
104	0x3d3f6e99	0.046736334
105	0x3cb68846	0.022281777
106	0x3d4183d4	0.04724486
107	0xbcb54941	-0.022129657
108	0x3c04f04a	0.00811393
109	0x3ce4614c	0.027878426
110	0x3c82bd03	0.015959268
111	0x3cf8e9cd	0.030384922
112	0x3cba56af	0.022746412
113	0x3d18d0a0	0.037308335
114	0xbca22372	-0.019792292
115	0x3cba2285	0.022721538
116	0x3c0779c9	0.008268782
117	0x3ca2a433	0.019853687
118	0x3a668cb4	0.000879477
119	0x3b899436	0.0041985763
120	0xbcdbadc7	-0.026816262
121	0x3cdcc6a4	0.026950188
122	0xbd24be77	-0.040220704
123	0xbd04ecd3	-0.032452416
124	0x3c83000a	0.01599123
125	0x3cc79999	0.024365233
126	0x3c7fc0f1	0.015609966
127	0xbd130838	-0.03589651
128	0x3c6e4abc	0.014544185
129	0xbc7f100f	-0.0155677935
130	0xbcee6ace	-0.029103663
131	0xbbdba795	-0.006703327
132	0xbb6045e4	-0.0034221346
133	0xbb3751c0	-0.002797231
134	0x3b7176ea	0.003684456
135	0x3d3fb8f4	0.046807244
136	0xbb5f0c3a	-0.0034034387
137	0x3b074be7	0.0020644607
138	0x3d4349d0	0.047677815
139	0x3ca98e35	0.020697692
140	0xbccfb8f0	-0.02535674
141	0xbb7319e2	-0.0037094285
142	0xbcdcd9b6	-0.026959281
143	0x3b80a588	0.003925983
144	0x3cd4eb6e	0.025991168
145	0x3d10c9fa	0.03534887
146	0xbd2dad49	-0.042401586
147	0x3d4acea5	0.049513478
148	0x3d32fc25	0.043697495
149	0x3be51b26	0.0069917617
150	0xbca9cbbc	-0.020727031
151	0xbcf73c0a	-0.030179996
152	0xbd30d8c4	-0.043175474
153	0xbb7fbc9e	-0.0039022337
154	0x3c2b5dbd	0.010459361
155	0x3cdbfc53	0.026853716
156	0x3d27cf76	0.040969335
157	0xbd0cfcdd	-0.034420837
158	0xbcb060db	-0.02153056
159	0xbcaba458	-0.020952389
160	0xbbf67f7a	-0.0075225206
161	0xbb9aa520	-0.0047193915
162	0x3cd66226	0.026169848
163	0x3bf55436	0.0074868454
164	0xbcf2610a	-0.029587287
165	0xbc31962e	-0.010839028
166	0x3b8b8ad0	0.004258491
167	0xbb7caf48	-0.0038556624
168	0x3bc4fab6	0.0060113324
169	0x3c39874c	0.011323761
170	0x3c9136d8	0.017726347
171	0x3d2cfb77	0.042232003
172	0x3c43047f	0.011902927
173	0xbd3363f9	-0.043796513
174	0xbc41a57a	-0.011819238
175	0xbb8e4ea4	-0.004342871
176	0xbd086a76	-0.033304654
177	0x3bfef880	0.0077810884
178	0x3d187de9	0.037229452
179	0x3ca8e608	0.0206175
180	0x3d724b3f	0.05915379
181	0x3d0fa7b0	0.03507203
182	0x3cbecf02	0.023292068
183	0x3cb398e9	0.0219235
184	0x3c7ce8b7	0.015436343
185	0x3d17aff6	0.037033044
186	0xbc102648	-0.008798189
187	0x3d1e8ff9	0.03871152
188	0xbc192bd7	-0.009348831
189	0x3c879db8	0.016554698
190	0xbce5deca	-0.028060336
191	0x3c9da132	0.019241903
192	0xbc5091a9	-0.012730041
193	0xbcd5948b	-0.026071807
194	0x3ce1c9ea	0.0275621
195	0xbc8a5232	-0.016884897
196	0x3d2fbd7a	0.04290531
197	0xbcb83a68	-0.022488788
198	0x3c6e9dba	0.014563972
199	0xbc0d546a	-0.008626083
200	0x3c86aee0	0.016440809
201	0xbc0045e2	-0.007829161
202	0x3cdc0c91	0.02686146
203	0xbcb500de	-0.02209514
204	0xbcf499fa	-0.029858578
205	0x3954b8cc	0.00020286738
206	0xbc7c8a0f	-0.015413775
207	0x3cd2e519	0.025744008
208	0xbcd3c16e	-0.02584907
209	0xbd3ca820	-0.046058774
210	0x3d47e61d	0.048803438
211	0xbc49dbe3	-0.0123204915
212	0xbb3d6a02	-0.0028902297
213	0x3c8f5d98	0.017500684
214	0xbcf62ade	-0.030049738
215	0x3ce72c69	0.028219419
216	0xbc4225f6	-0.011849871
217	0xbad67cce	-0.0016364099
218	0x3cb6d631	0.022318931
219	0x3d7b6f00	0.061385155
220	0x3c4ecdd4	0.012622315
221	0x3c953118	0.018211886
222	0x3c2979e3	0.010344001
223	0xbce875ac	-0.028376423
224	0xbc956b7f	-0.018239735
225	0x3b107da7	0.002204755
226	0x3babad6e	0.0052391803
227	0xbce9468c	-0.028476022
228	0x3c83af75	0.016074875
229	0xbb83d57f	-0.0040232535
230	0xbc01a74e	-0.007913424
231	0x3cef876a	0.029239375
232	0x3d1e0c3e	0.038585894
233	0x3be0f7bc	0.0068654697
234	0x3c5db5e4	0.013532136
235	0xbcc52823	-0.02406699
236	0x3c471813	0.012151736
237	0xbd0a9a26	-0.033838414
238	0xbcc7ae4c	-0.024375103
239	0x3c5d9fc7	0.013526863
240	0x3ca4daaa	0.020123798
241	0xbc55f1cc	-0.013058137
242	0x3ca28455	0.019838491
243	0x3acb265d	0.0015499104
244	0xbcdc91bb	-0.026924958
245	0xbc633e25	-0.013869797
246	0x3d16a055	0.036774
247	0xbcada920	-0.02119881
248	0x3cc18d6c	0.023627006
249	0xbbd8a1c6	-0.006611082
250	0x3d27eefb	0.040999394
251	0x3d07c2c2	0.03314472
252	0x39f4e7ce	0.00046712015
253	0x3d505b07	0.05086806
254	0xbcb9f6e8	-0.022700742
255	0xbd2beb78	-0.041972607

conv3.bias f4 [32]
0	0x3cf69f18	0.030105159
1	0xbce9ccdc	-0.028540067
2	0xbd3ce40d	-0.046115924
3	0x3d03e255	0.03219827
4	0x3d17fbb4	0.037105277
5	0xbd5246d1	-0.051337067
6	0x3c2dade9	0.010600545
7	0xbc765117	-0.015033982
8	0x3c912958	0.01771991
9	0xbd2f5046	-0.042801164
10	0x3a87289c	0.0010311785
11	0xbd6037f5	-0.054740865
12	0xbcdbea4f	-0.026845125
13	0xbb90eb15	-0.004422555
14	0x3d2f226c	0.042757437
15	0x3d49cbba	0.049266554
16	0x3d1a12a9	0.037615452
17	0xbc0268cd	-0.007959557
18	0x3d1e5953	0.038659405
19	0xbcb3f642	-0.02196801
20	0x3c9c8a86	0.019109022
21	0x3c02e24f	0.0079885265
22	0x3b385550	0.0028127022
23	0x3c1c3753	0.009534675
24	0xbc8b20c5	-0.0169834
25	0xbc9497e0	-0.018138826
26	0xbb67076b	-0.0035252224
27	0x3cd90bea	0.026494939
28	0x3d51dcb5	0.051235873
29	0x3c0b3f12	0.008498924
30	0x3a97c9d5	0.0011580536
31	0x3d045097	0.03230342

conv4.weight f4 [64, 32, 3, 3]
0	0xbd4243ba	-0.04742787
1	0x3ce9b129	0.02852686
2	0xb9bc1328	-0.00035872427
3	0xbd784f4c	-0.0606225
4	0xbd155324	-0.036456242
5	0xbd125039	-0.035721038
6	0xbc8f7ad9	-0.017514633
7	0xbd8967e3	-0.06709268
8	0x3b768146	0.0037613674
9	0xbc622e21	-0.013804943
10	0x3d233d2b	0.039853256
11	0xbc91a736	-0.017779928
12	0xbd8950b6	-0.067048475
13	0xbd20083c	-0.039070353
14	0xbda792cb	-0.081822954
15	0xbd5aee5b	-0.05344997
16	0x3c40dfec	0.011772137
17	0xbd428ad2	-0.04749567
18	0x3d1b9146	0.03798034
19	0x3ca73341	0.020410182
20	0x3c92a23d	0.017899627
21	0xbc64d30b	-0.013966332
22	0x3cbf400d	0.023345971
23	0xbba919c2	-0.0051605413
24	0x3d4d7cac	0.050167724
25	0x3d5269c1	0.051370386
26	0x3cfce552	0.030871067
27	0x3cab026d	0.02087518
28	0x3d3c3bf3	0.04595561
29	0x3bc2b658	0.005942147
30	0x3d3350b9	0.043778155
31	0x3bdf19f8	0.0068085156
32	0x3b806334	0.003918076
33	0xbcda6757	-0.026660604
34	0xbc8c1e83	-0.017104393
35	0xbc9d1d25	-0.019178936
36	0xbd4bf682	-0.049795635
37	0xbd179105	-0.037003536
38	0x3ccc65fb	0.024950972
39	0x3d8376ca	0.064191416
40	0xbcc79180	-0.024361372
41	0xbbc6a067	-0.006061602
42	0x3d7c70ae	0.061630897
43	0x3cd9a395	0.02656726
44	0x3d896997	0.06709593
45	0x3d261407	0.040546443
46	0xbcc17ab9	-0.023618089
47	0xbd168e91	-0.036757056
48	0xbb29b86e	-0.0025897282
49	0x3a8caf0e	0.0010733323
50	0xbd9c0b9a	-0.076194
51	0xbd21f123	-0.039536607
52	0x3b3c3f44	0.0028724233
53	0xbd93ee3d	-0.07223175
54	0xbd4a9b9b	-0.049464803
55	0xbc172a6a	-0.009226421
56	0xbd589880	-0.05287981
57	0xbd964bb1	-0.07338656
58	0x3d1459f2	0.03621859
59	0x3bda487e	0.006661474
60	0xbd71db6b	-0.059047144
61	0xbd1e2a17	-0.03861436
62	0xbd640d67	-0.055676844
63	0xbcbc9132	-0.023018453
64	0x3d033fb6	0.03204318
65	0x3d6d18bf	0.057884928
66	0x3d4c2a7b	0.0498452
67	0x3c8c04b2	0.017092083
68	0xbcdeb2ef	-0.027184932
69	0x3b3639ac	0.0027805371
70	0xbd182a32	-0.037149616
71	0xbd0f77ca	-0.03502635
72	0xbd6a8a4b	-0.057260793
73	0xbd75dd4f	-0.06002551
74	0xbd4447b7	-0.047919955
75	0xbd96dae0	-0.07365966
76	0xbd9b6854	-0.075882584
77	0xbd43650a	-0.04770378
78	0x3d4cbeb5	0.04998656
79	0x3d0bed4e	0.03416186
80	0xbcdd92d2	-0.027047548
81	0x3cd05c93	0.025434768
82	0xbc8e54e3	-0.017374462
83	0xbd1c7e3f	-0.038206335
84	0x3bfe9e18	0.007770311
85	0xbc89b31b	-0.016809037
86	0xbd358fc7	-0.04432657
87	0xbd472b5e	-0.048625343
88	0x3d14df47	0.036345746
89	0xbc732ae3	-0.014841768
90	0xbc2671d6	-0.010158977
91	0xbc961034	-0.018318273
92	0xbd45e953	-0.04831822
93	0x3b5b9e4f	0.0033511107
94	0x3c904444	0.017610677
95	0xbd38d965	-0.0451292
96	0xbc2c4e1c	-0.01051667
97	0xbd1a654b	-0.037694257
98	0xbc49f0b5	-0.012325455
99	0xbc784405	-0.015152936
100	0x3d409283	0.047014724
101	0xbcb8d3db	-0.022561958
102	0x3c9f75a8	0.019465283
103	0xbd2b8433	-0.041874122
104	0xbdb25ff3	-0.08709707
105	0xbd8d45e8	-0.06898099
106	0xbd61a9a7	-0.055093434
107	0xbc4707ef	-0.012147888
108	0xbd50cf88	-0.050979167
109	0x3d30978b	0.043113273
110	0x3bdd2a30	0.006749414
111	0x3d448a7a	0.047983624
112	0x3bd98282	0.006637872
113	0xbd2777ca	-0.040885724
114	0x3caa5053	0.020790255
115	0xbd3d7991	-0.046258513
116	0xbd85e0db	-0.065370284
117	0xbd717d3c	-0.058957323
118	0x3c96fdc1	0.018431546
119	0xbbd541fe	-0.006508111
120	0xbb95b7eb	-0.004569044
121	0xbd1206c6	-0.03565099
122	0xbd6e9f33	-0.058257293
123	0xbd4af8df	-0.04955375
124	0xbd02aea1	-0.03190482
125	0x3c61eec8	0.01378984
126	0xbd1fdfcf	-0.0390318
127	0x3d4dd3e0	0.050250888
128	0x3d18c439	0.037296508
129	0x3cf11d06	0.029432785
130	0x3d8c9e46	0.06866126
131	0x3d6e380d	0.058158923
132	0x3c791861	0.015203566
133	0xbd012a5f	-0.03153455
134	0x3d899eba	0.06719728
135	0xbd717adb	-0.058955055
136	0x3c58eb27	0.013239658
137	0xbcb0ca6c	-0.021580897
138	0xbcf0a4be	-0.02937543
139	0xbd44963c	-0.047994837
140	0xbd3030b5	-0.0430152
141	0x3d42f595	0.047597487
142	0x3ae93da1	0.0017794856
143	0x3d8796e9	0.06620581
144	0xbbd9bec3	-0.006645055
145	0xbc9d9180	-0.019234419
146	0x3d854701	0.065076835
147	0xbd3995a5	-0.045308728
148	0x3c4befe9	0.012447336
149	0x3d029181	0.031877045
150	0xbd2f10a8	-0.042740494
151	0xbd3f96c6	-0.046774648
152	0x3d4e0010	0.05029303
153	0xbd648678	-0.055792302
154	0xbcbfe48b	-0.023424407
155	0xbcc4309f	-0.023948966
156	0x3d54f953	0.051995587
157	0x3d61af19	0.055098627
158	0x3d91d9aa	0.07121594
159	0x3c7707ec	0.015077572
160	0x3d50f8e0	0.051018596
161	0x3d2086da	0.039191104
162	0x3d3cd2f2	0.04609961
163	0x3c4ce15d	0.012504903
164	0x3c74ac57	0.014933667
165	0x3d8a7256	0.06760089
166	0xbc5d5e8a	-0.013511309
167	0xbc90fbc1	-0.01769817
168	0x3b78ffa9	0.0037994182
169	0x3ce549ed	0.027989352
170	0x3d5e8fbe	0.054336302
171	0xbcfb7377	-0.030694706
172	0xbbd35327	-0.0064491215
173	0xbd316288	-0.043306857
174	0x3d6edc93	0.058315825
175	0xbd46953c	-0.048482165
176	0x3c143f20	0.009048253
177	0x3bbfa298	0.00584824
178	0xbd22ad03	-0.039715778
179	0xbcb87ed5	-0.022521416
180	0x3d028438	0.031864375
181	0x3b691534	0.0035565617
182	0x3d79fc1c	0.061031446
183	0x3cf331a9	0.029686766
184	0xbc864e5b	-0.016394785
185	0xbc526d08	-0.012843378
186	0x3d71a18d	0.058991957
187	0xbd048992	-0.03235776
188	0xbd1185fa	-0.03552816
189	0x3d16e00b	0.036834758
190	0xbd260d2c	-0.040539905
191	0xbd711280	-0.058855534
192	0x3c5381f2	0.012909399
193	0x3c6a9c89	0.014319547
194	0xbd64d988	-0.055871516
195	0xbdaf1b73	-0.085501574
196	0xbccc65b6	-0.024950843
197	0xbd627dd2	-0.055295773
198	0xbcaa0308	-0.020753399
199	0xbd689516	-0.056782804
200	0x3cfb6620	0.030688345
201	0xbd289d00	-0.041165352
202	0xbc21d635	-0.009877731
203	0xbc755589	-0.014974006
204	0xbd0cc62d	-0.034368683
205	0xbd3f3902	-0.046685226
206	0x3a8f436a	0.0010930125
207	0xbb55e86a	-0.003263975
208	0x3d001675	0.031271417
209	0x3d1e1b36	0.03860017
210	0xbbb7b889	-0.005606715
211	0xbc2d5998	-0.010580443
212	0xbd429e0b	-0.047514003
213	0x3c01cd8b	0.00792254
214	0xbd223b97	-0.03960761
215	0x3cca32b3	0.024682378
216	0xbc96947f	-0.018381355
217	0x3cbb6c49	0.022878783
218	0xbbccd514	-0.006250987
219	0xbd742444	-0.059604898
220	0xbd81f45a	-0.063454345
221	0xbc5f90da	-0.013645375
222	0x3d29ad78	0.0414252
223	0x3c720fae	0.014774246
224	0xbd055b22	-0.032557614
225	0x3d34651e	0.044041745
226	0x3d35a18c	0.044343516
227	0xbd09d0a6	-0.03364625
228	0xbd56361a	-0.05229769
229	0x3c0bc584	0.008530978
230	0x3ccba57a	0.024859179
231	0x3b9a9fbf	0.0047187502
232	0x3d13f928	0.036126286
233	0xbca49e81	-0.020095112
234	0x3d1e23d0	0.038608372
235	0xbcfaa276	-0.030595046
236	0x3ce980d1	0.028503807
237	0x3ca49a1c	0.020093016
238	0xbd0aa073	-0.033844423
239	0xbc70baa4	-0.014692936
240	0x3cca9626	0.0247298
241	0xbd515294	-0.051104143
242	0x3c2075b0	0.009793684
243	0x3d085440	0.033283472
244	0xbc49bea2	-0.012313517
245	0x3d60074e	0.054694466
246	0x3c4dad8e	0.012553586
247	0x3c9cea96	0.019154828
248	0x3b9b5c62	0.0047412375
249	0x3d595b6c	0.053065702
250	0x3bf804bf	0.007568925
251	0xbcfb9da7	-0.030714823
252	0xbd195b40	-0.03744054
253	0x3c06cadc	0.008227076
254	0xbac56c22	-0.0015062133
255	0x3d280e9b	0.041029554

conv4.bias f4 [64]
0	0x3d809dc8	0.062800944
1	0x3d14b5bb	0.036306124
2	0xbcb5a0cc	-0.0221714
3	0xbd8af5c3	-0.067851566
4	0x3d0151af	0.03157204
5	0xbd151bc3	-0.03640343
6	0x39afa78a	0.00033503427
7	0x3d1fc789	0.03900865
8	0xbc9b10d7	-0.018928928
9	0xbd1e724e	-0.03868323
10	0x3d619f15	0.055083353
11	0xbd4a0d3d	-0.04932903
12	0xbb215e84	-0.0024622986
13	0x3c9b822c	0.01898297
14	0x3ccdfd7c	0.025145285
15	0xbd017394	-0.031604365
16	0xbd94a625	-0.07258252
17	0xbd5cb50b	-0.053883594
18	0x3d0956d9	0.03353009
19	0xbb4b175b	-0.0030989263
20	0x3c948211	0.018128427
21	0xbc40371a	-0.011731887
22	0xbd2867b1	-0.041114513
23	0x3d28d157	0.041215267
24	0xbd02d742	-0.031943567
25	0xbbbdfd3e	-0.005798011
26	0x3d40eabb	0.047098856
27	0xbbed5348	-0.007242594
28	0xbd194c0c	-0.03742604
29	0xbd658188	-0.056031734
30	0xbd7d1350	-0.061785996
31	0xbb02bb91	-0.0019948224
32	0x3cef57ce	0.029216673
33	0x3d1a09f1	0.037607137
34	0x3d05af8e	0.032638125
35	0x3d0ddf66	0.034636877
36	0x3c1cae48	0.009563036
37	0xbc5cd7cf	-0.013479187
38	0x3c1da954	0.0096228905
39	0xbcc3ab02	-0.023885254
40	0x3c88119f	0.016609965
41	0x3d21bd5f	0.03948724
42	0x3d4a9dde	0.04946696
43	0x3d8243dd	0.063606
44	0x3d727d4c	0.059201524
45	0x3d63783c	0.055534586
46	0xbd5c015c	-0.053712234
47	0x3d8a927b	0.0676622
48	0x3cc7ac37	0.02437411
49	0xbcc393db	-0.023874214
50	0x3c1b41b4	0.009476114
51	0x3c30ce83	0.010791424
52	0x3c925eaa	0.017867405
53	0xbc06d663	-0.008229825
54	0x3d5fe649	0.054662976
55	0xbd733413	-0.059375834
56	0x3ccee01a	0.025253344
57	0xbc1dfd3a	-0.009642893
58	0xbd4720bd	-0.048615206
59	0xbd837075	-0.06417934
60	0x3d9760ef	0.073915355
61	0xbca1aa8d	-0.019734645
62	0x3c6fe716	0.0146424975
63	0x3d3f42db	0.046694618

conv5.weight f4 [32, 64, 3, 3]
0	0xbcad2a12	-0.021138225
1	0xbb33348f	-0.002734456
2	0x3b2160e7	0.0024624409
3	0xbad1a488	-0.0015994469
4	0x3d4b5f36	0.049651347
5	0x3b875630	0.0041301474
6	0x3b960d6c	0.0045792367
7	0x3cf414d4	0.029795088
8	0x3cccb8d7	0.024990482
9	0xbd70ce06	-0.05879023
10	0xbc8aa6f3	-0.01692531
11	0xbc98c896	-0.018650334
12	0xbcdde70b	-0.027087709
13	0x3d1205d6	0.035650097
14	0xbc59b527	-0.013287819
15	0x3cf1badf	0.029508052
16	0xbc84ca56	-0.016209763
17	0x3cce3ec9	0.025176423
18	0x3cd46fcd	0.025932217
19	0xbcbd0cc5	-0.023077378
20	0xbcbf5db7	-0.023360116
21	0xbcbddf13	-0.02317766
22	0xbc9c2751	-0.019061716
23	0x3d23bc84	0.039974704
24	0x3c4d5871	0.012533293
25	0x3c9e054c	0.019289635
26	0xbd3471a6	-0.044053696
27	0xbb95bacb	-0.0045693866
28	0x3c99a58e	0.0187557
29	0xbbe90153	-0.0071107536
30	0x3c3ee3d4	0.011650998
31	0xbd18be18	-0.037290663
32	0xbc6c6659	-0.014428698
33	0x3d189a6a	0.037256636
34	0xbd0aed29	-0.03391758
35	0x3c02526d	0.007954222
36	0xbd0ae0cc	-0.03390579
37	0x3a1984d6	0.0005856281
38	0xbc51d8a7	-0.012808002
39	0xbbe675ce	-0.0070330864
40	0xbb3a8e86	-0.0028466298
41	0xbd0c09ea	-0.034189142
42	0xbd3a2083	-0.04544116
43	0xbd0ae33c	-0.033908114
44	0xbc02bcec	-0.007979613
45	0x3d14e3be	0.036350004
46	0xbd0d014d	-0.03442507
47	0x3c8f7fbe	0.017516967
48	0x3d099e65	0.033598322
49	0x3b8e0042	0.004333527
50	0x3b637137	0.0034704932
51	0xbca113c3	-0.019662743
52	0x3c90109b	0.017586043
53	0xbb826054	-0.0039787684
54	0xbd5b9f05	-0.05361845
55	0xbcd71181	-0.026253464
56	0xb9da60f7	-0.00041652445
57	0x3c3e4159	0.01161226
58	0x3c337eeb	0.010955553
59	0x3c7d8937	0.015474609
60	0x3ca202f5	0.0197768
61	0x3cfce0a1	0.03086883
62	0x3cfec5bb	0.031100145
63	0xbd238478	-0.039921254
64	0x3d41f81f	0.047355767
65	0x3d48646c	0.048923895
66	0x3d2b99db	0.041894775
67	0x3cf4526c	0.029824458
68	0x3cdf6835	0.02727137
69	0xbcd5340b	-0.026025793
70	0x3d30736e	0.043078832
71	0x3d231c6a	0.03982202
72	0xbc65904d	-0.014011455
73	0xbc88a0fc	-0.016678326
74	0x3d211aab	0.039332073
75	0x3cb58a3a	0.022160638
76	0x3d21c8ac	0.039498016
77	0x3cdad39c	0.026712231
78	0xbc220301	-0.0098884115
79	0xbb4e2302	-0.0031453972
80	0x3ccac649	0.024752753
81	0x3d1c9463	0.03822745
82	0xbd8299bd	-0.063769795
83	0x3ca73d01	0.020414831
84	0x3d38739f	0.04503214
85	0xbc027f98	-0.007964991
86	0x3cf86da5	0.03032572
87	0x3c913e56	0.01772992
88	0xbbde3754	-0.006781498
89	0xbd077df6	-0.03307911
90	0xbbfc90cd	-0.0077076913
91	0x3d103262	0.0352043
92	0xbcfe004a	-0.031005997
93	0x3d0de4e3	0.03464211
94	0x3d46750e	0.048451476
95	0x3c39a72a	0.011331359
96	0x3caa8907	0.020817293
97	0x3bc26ef4	0.005933637
98	0xbb95f632	-0.004576468
99	0xbd35b572	-0.044362493
100	0xbc906c00	-0.017629623
101	0x3bdcbab8	0.006736126
102	0x3cc82ce0	0.02443546
103	0x3d34fa40	0.04418397
104	0xbce523c7	-0.027971162
105	0x3cb63e4d	0.022246504
106	0x3c671665	0.01410446
107	0xbd2865dc	-0.041112766
108	0xbd029344	-0.031878725
109	0xbd058606	-0.032598518
110	0xbadba72e	-0.0016758197
111	0x3d075d98	0.033048242
112	0xbcee7db1	-0.029112669
113	0xbd243c31	-0.040096465
114	0x3c2b6375	0.010460724
115	0x3d3194ea	0.043354906
116	0x3cf2719e	0.029595193
117	0xbcb1a091	-0.02168301
118	0x3d495be9	0.049159918
119	0x3ce2bc7e	0.02767777
120	0x3d6a913c	0.057267413
121	0xbbe17222	-0.006880061
122	0x3d145722	0.03621591
123	0x3ca3ac47	0.01997961
124	0x3d2f7db8	0.042844504
125	0x3be5b2b6	0.0070098294
126	0x3c4cab77	0.012492052
127	0x3cda159e	0.026621636
128	0x3d010842	0.031502016
129	0x3d42f739	0.04759905
130	0x3d0ef70f	0.034903582
131	0x3c71ce46	0.014758652
132	0xbbd18330	-0.0063938126
133	0x3cf4e906	0.02989627
134	0x3d1da6fb	0.038489323
135	0x3d07ed5e	0.033185355
136	0xbc4e3140	-0.012584984
137	0xbbbfaba2	-0.0058493176
138	0x3cc9b0a5	0.024620363
139	0x39faf121	0.0004786337
140	0xbc9803e0	-0.018556535
141	0x3cabc31a	0.020967055
142	0x3d005a17	0.031335916
143	0xbbbc2a2a	-0.005742331
144	0x3bbbfd5d	0.0057369904
145	0xbd363d80	-0.044492245
146	0xbc8bd224	-0.017067976
147	0xbd286576	-0.041112386
148	0x3c07c50e	0.008286728
149	0x3c87e191	0.01658705
150	0x3cb439b4	0.022000171
151	0xbce2af78	-0.02767156
152	0x3cea862d	0.028628433
153	0xbcfc6595	-0.030810157
154	0xbd32961b	-0.043600183
155	0xbd3c7553	-0.046010327
156	0xbceae0b0	-0.028671592
157	0xbd13c6d7	-0.0360783
158	0x3cf12787	0.029437793
159	0x3c4fbead	0.012679738
160	0xbd0c5560	-0.034261107
161	0x3d1375b9	0.03600094
162	0xbc9190fd	-0.017769331
163	0xbd2d5bd6	-0.04232391
164	0xbd3bc2f1	-0.045840207
165	0xba18a1eb	-0.00058224675
166	0x3cda2da8	0.026633099
167	0x3cd11ecc	0.02552738
168	0xbd1a5b5a	-0.037684776
169	0x3d305854	0.043052986
170	0x3c6b5c46	0.014365261
171	0x3c572343	0.013130966
172	0x3d2f34fd	0.042775143
173	0x3d2019b4	0.039087012
174	0x3d280cbe	0.041027777
175	0xbae12af2	-0.0017178936
176	0x3c82e803	0.015979772
177	0x3cd34f57	0.025794668
178	0xba2c2844	-0.00065672793
179	0xbc35012f	-0.0110476455
180	0x3d3201ee	0.04345887
181	0xbd6713a5	-0.05641522
182	0x3c64e15c	0.0139697455
183	0xbbe0d35b	-0.006861133
184	0xbc65dc69	-0.014029601
185	0xbd000bee	-0.031261377
186	0x3b2e6054	0.002660771
187	0x3d37e4d2	0.044895954
188	0x3c424384	0.011856917
189	0xbb767be0	-0.0037610456
190	0xbd6b3c45	-0.057430524
191	0x3cb1a5a8	0.021685436
192	0x3d27c82b	0.04096238
193	0x3bf0aa99	0.0073445556
194	0x3d86302d	0.065521576
195	0x3bf50664	0.0074775685
196	0x3d5b541f	0.05354702
197	0x3d46897e	0.048470967
198	0xbcb759dc	-0.022381715
199	0xbd191776	-0.03737589
200	0x3b9aff10	0.004730113
201	0xbd2ebb54	-0.04265912
202	0xbd36678f	-0.044532355
203	0x3cfc828f	0.030823974
204	0xbd30b619	-0.04314241
205	0xbc616e1c	-0.013759162
206	0xbcd13f62	-0.025542919
207	0x3c36ca09	0.011156567
208	0xbc9dacfe	-0.019247528
209	0x3d1c1da4	0.038114205
210	0x3c99513a	0.01871549
211	0x3cadb988	0.021206632
212	0xbcc54c8e	-0.024084356
213	0xbca20c6f	-0.01978132
214	0xbcce14df	-0.025156436
215	0x3d5082e4	0.050906077
216	0xbc4d0b3c	-0.0125148855
217	0xbd459499	-0.048237417
218	0xbcd3bcb5	-0.025846818
219	0xbb4d179e	-0.0031294595
220	0xbd102dbf	-0.035199877
221	0xbc92db8d	-0.017926956
222	0xbd12c013	-0.035827707
223	0xbc8ac35c	-0.016938858
224	0xbd01cd54	-0.031689957
225	0xbcd7b705	-0.026332388
226	0xbcc3baf1	-0.023892852
227	0x3ce5ad65	0.028036783
228	0x3cd4ce3a	0.025977243
229	0xbc0b8400	-0.008515358
230	0x3d0ffa96	0.035151087
231	0x3c89db6d	0.016828263
232	0x3d039541	0.03212476
233	0xbc9a88f5	-0.018864134
234	0x3cb44be3	0.022008842
235	0x3cf9cc29	0.030492859
236	0x3c99d46a	0.018778045
237	0xbc049afc	-0.008093592
238	0xbcbd574a	-0.023112912
239	0xbccfdec4	-0.025374778
240	0xbb85d5e0	-0.004084334
241	0xbd1b9051	-0.037979428
242	0x3d41f828	0.0473558
243	0xbb5cb2c2	-0.0033675884
244	0xbcd41f7f	-0.025893925
245	0x3a71072a	0.0009194488
246	0x3c9ecd9b	0.01938515
247	0x3d803631	0.06260336
248	0xbb733fde	-0.0037116925
249	0x3c9d752a	0.019220907
250	0x3d17934a	0.0370057
251	0xbcbc3e45	-0.022978911
252	0x3bcb3bc3	0.0062021925
253	0xbaccfb41	-0.0015638844
254	0xbcca7bb7	-0.024717195
255	0x3d14b7e7	0.036308195

conv5.bias f4 [32]
0	0x3c9fe781	0.01951957
1	0xbd3da1f8	-0.046297044
2	0x3d04e248	0.03244236
3	0xbca42a4f	-0.020039706
4	0xbcb0c98d	-0.021580482
5	0x3c52433b	0.012833412
6	0xbcb4fedf	-0.022094188
7	0xbc721e6e	-0.014777763
8	0xbd45028a	-0.048098125
9	0x3c996e02	0.018729214
10	0xbd31477c	-0.043281063
11	0xbc9f71ee	-0.019463506
12	0xbd227d5c	-0.039670333
13	0xbcc9977f	-0.024608372
14	0x3b8e0cbb	0.0043350137
15	0x3c444ef6	0.011981716
16	0x3ceeb432	0.029138658
17	0x3ca7bede	0.020476755
18	0xbb8e81fa	-0.0043489905
19	0xbc41a263	-0.011818501
20	0xbc4fa4c5	-0.012673561
21	0xbcf68898	-0.03009443
22	0xbc809d84	-0.01570011
23	0x3d14b48e	0.036305003
24	0xbca83b20	-0.020536005
25	0x3c4494a4	0.011998329
26	0x3c55bc6f	0.013045414
27	0xbba9037a	-0.005157885
28	0xbd12a9d8	-0.035806507
29	0x3c939122	0.01801354
30	0xbd15fa71	-0.036615793
31	0x3d26d593	0.040731024

conv6.weight f4 [64, 32, 3, 3]
0	0xbccf6db4	-0.025320865
1	0xbd54cb8d	-0.051951934
2	0xbd0a3b08	-0.033747703
3	0xbd038329	-0.032107506
4	0xbd266176	-0.04062029
5	0x3d63ec85	0.055645484
6	0xbd2a37a3	-0.041556966
7	0x3c49116c	0.01227222
8	0xbb483a9c	-0.0030552512
9	0x3bae1d51	0.0053135534
10	0xbd0b4be5	-0.034007926
11	0xbcaeb31c	-0.02132564
12	0xbd5c3865	-0.05376472
13	0x3c15ef83	0.009151342
14	0xbd62488a	-0.05524496
15	0x3ce2c327	0.027680947
16	0xbbd4607e	-0.0064812293
17	0x3c902af0	0.0175986
18	0xbd7dd53c	-0.061970934
19	0x3d5c2f35	0.053755958
20	0x3d726d7b	0.05918644
21	0xbd3d20e4	-0.046173945
22	0xba243d6a	-0.0006265255
23	0x3c05da22	0.008169683
24	0x3c8808e9	0.016605811
25	0x385465a6	5.0639406e-05
26	0x3d055e0b	0.03256039
27	0x3ce4348f	0.027857093
28	0x3c806685	0.015673885
29	0xbcb4e001	-0.02207947
30	0x3ca3c40a	0.01999094
31	0xbcefe5af	-0.029284326
32	0x3cf76842	0.030201081
33	0x3ce22d9e	0.027609643
34	0x3d1ab0dc	0.037766322
35	0x3bd1170c	0.006380921
36	0xbd572ae2	-0.05253113
37	0x3c086b07	0.008326299
38	0x3d86a96e	0.06575285
39	0xba30f4dc	-0.0006750354
40	0x3c8b9382	0.01703811
41	0x3d5e504b	0.054275792
42	0xbcf240ea	-0.029571969
43	0x3d70ac2d	0.05875795
44	0x3cfddc04	0.0309887
45	0x3d49271d	0.049109567
46	0x3ccf9b02	0.025342468
47	0xbd42e01f	-0.04757702
48	0xbcfa2ce4	-0.030538984
49	0xbc9a8a04	-0.01886464
50	0xbd6366c1	-0.055517916
51	0xbc71995b	-0.014746035
52	0x3d042ec5	0.032271165
53	0xbd393edf	-0.045225974
54	0xbd007690	-0.03136307
55	0x3d2e547f	0.04256105
56	0x3d45c007	0.048278835
57	0xbd710d30	-0.058850467
58	0xbcd6e833	-0.026233768
59	0x3c1c1628	0.009526767
60	0xbd5a2dc4	-0.0532663
61	0x3d43256a	0.047643103
62	0x3d58857b	0.052861672
63	0xbcf5ee5b	-0.030020883
64	0xbd5a127d	-0.053240288
65	0x3c0717e8	0.008245446
66	0xbd583c55	-0.052791912
67	0x3c868cd6	0.016424578
68	0x3cd1c17c	0.025604956
69	0xbcd6ade8	-0.026205972
70	0xbcda6f90	-0.026664525
71	0x3ce6b040	0.028160214
72	0xb8567380	-5.1129144e-05
73	0xbd0dab17	-0.034586992
74	0xbd2b883e	-0.041877978
75	0xbc3c4575	-0.011491169
76	0xbd56c5a6	-0.052434586
77	0xbd8895b2	-0.06669177
78	0xbd88da93	-0.06682315
79	0xbc7e50e2	-0.015522214
80	0x3bae6e2b	0.0053231916
81	0xbd888a4e	-0.066670045
82	0xbd4cb407	-0.049976375
83	0x3ca3af3a	0.019981015
84	0xbd5d4958	-0.054025024
85	0xbd5683e1	-0.052371863
86	0x3b9fb9c2	0.004874439
87	0xbd5341d7	-0.05157646
88	0x3d2cc0be	0.042176
89	0x3c7c192b	0.01538686
90	0x3d7b50bc	0.06135629
91	0x3c70de4b	0.014701436
92	0xbd4c4fb6	-0.049880706
93	0xbd725275	-0.05916067
94	0xbcd9c54e	-0.02658334
95	0xbd06bb73	-0.03289361
96	0xbd08e312	-0.033419676
97	0x3d3e76e1	0.04650009
98	0xbcb1b222	-0.021691386
99	0xbc56dcaa	-0.013114134
100	0x3d235ad1	0.03988153
101	0x3d6a0a92	0.057138987
102	0xbd232502	-0.039830215
103	0xbcc15a30	-0.023602575
104	0x3d047d26	0.032345913
105	0x3c09c322	0.00840834
106	0xbcbac845	-0.022800574
107	0xbb6d3589	-0.003619524
108	0xbc47c83a	-0.012193734
109	0x3c9fd1d5	0.019509235
110	0x3c957647	0.018244876
111	0x3d0c4109	0.03424171
112	0x3d037a18	0.03209886
113	0xbd425868	-0.047447592
114	0xbd29fc18	-0.04150018
115	0xbcf912f0	-0.030404538
116	0xbc972a53	-0.018452799
117	0x3c8831d3	0.01662532
118	0x3d35c4da	0.044377185
119	0xbd200d4d	-0.039075185
120	0xbd05387b	-0.032524567
121	0xbbe280cc	-0.0069123264
122	0xbc8929c9	-0.016743558
123	0x3c70cdb2	0.014697479
124	0xbd4a6aa4	-0.049418107
125	0xbd43e3ef	-0.047824796
126	0x3c9b98b8	0.01899372
127	0x3cab4a08	0.020909324
128	0x3d52343f	0.051319357
129	0xbd2e3eac	-0.042540237
130	0x39b7b6bc	0.00035040628
131	0xbd886a9f	-0.06660961
132	0x3cd90f42	0.026496533
133	0x3cf854bc	0.030313842
134	0xbd41d8db	-0.04732595
135	0xbd4e88a5	-0.050423283
136	0x3cc3fcf7	0.023924334
137	0x3d7db04d	0.06193571
138	0xbd25db20	-0.040492177
139	0xbd259d4d	-0.040433217
140	0x3caef32a	0.021356184
141	0x3c9a7524	0.018854685
142	0xbcd4d0f2	-0.02597854
143	0x3c805eed	0.015670264
144	0xbd48e171	-0.049043123
145	0x3cd35cee	0.025801148
146	0xbd2c2896	-0.042030893
147	0xbd5d52cc	-0.05403404
148	0x3d5f4462	0.054508574
149	0x3d60d682	0.05489207
150	0xbd17e998	-0.037088007
151	0xbcd6eb40	-0.026235223
152	0xbc9b4cdb	-0.018957546
153	0xbd2bc849	-0.041939054
154	0xbc861304	-0.01636649
155	0x3d02b7c8	0.03191355
156	0xbd83e8e9	-0.064409085
157	0x3cf2c2c9	0.029633896
158	0xbd178999	-0.036996458
159	0x3ac6e01e	0.0015172993
160	0x3ba5b86f	0.0050573866
161	0x3c43c333	0.011948395
162	0xbd14838a	-0.036258258
163	0xbd1431a6	-0.03618016
164	0xbbe46201	-0.006969691
165	0xbd023e3c	-0.031797633
166	0x3cc70283	0.02429319
167	0x3cebcbe7	0.028783752
168	0xbd653c67	-0.055965807
169	0x3c9bb7e4	0.019008584
170	0xbc6f8677	-0.014619461
171	0xbc235961	-0.00997004
172	0xbd550452	-0.052006073
173	0xb99b33e4	-0.00029602565
174	0x3cfccc30	0.030859083
175	0xbc08d5cc	-0.008351754
176	0xbd42b399	-0.04753456
177	0x3d6ab5b8	0.057302207
178	0x3d5f4701	0.054511074
179	0xbd30a42e	-0.043125324
180	0xbd36f658	-0.044668525
181	0x3d3b77ef	0.045768674
182	0x3d4f4bd7	0.050609436
183	0x3d14e5ca	0.036351956
184	0xbc80b418	-0.015710875
185	0xbcba77a7	-0.022762133
186	0xbd413195	-0.047166426
187	0xbd52ba3b	-0.051447134
188	0x3d7326e7	0.059363272
189	0x3c994f11	0.01871446
190	0xbbb5cba3	-0.005547957
191	0xbcca599b	-0.02470093
192	0xbbfe5730	-0.0077618584
193	0x3d34402f	0.044006523
194	0xbd0778d6	-0.033074223
195	0xbcec2c5f	-0.028829752
196	0xbcae0a75	-0.02124522
197	0x3d8855ea	0.06657012
198	0x3bc62870	0.006047301
199	0x3cb72619	0.022357034
200	0xbce11156	-0.027474087
201	0x3cbaf61f	0.022822438
202	0xbd430155	-0.047608692
203	0xbd67878a	-0.056525744
204	0xbc9dadb3	-0.019247865
205	0xbd8d3cb9	-0.068963476
206	0x3c1f639f	0.009728341
207	0x3b1a0b9c	0.0023505455
208	0xbcc81b00	-0.024426937
209	0xbc2297d9	-0.009923899
210	0x3d1d3efe	0.038390152
211	0xbd5b2c6a	-0.053509153
212	0x3b1366a4	0.0022491599
213	0x3d278860	0.04090154
214	0x3d5d012b	0.053956192
215	0x3d85d2ec	0.06534371
216	0xbcc31d7f	-0.023817776
217	0x3d60641e	0.05478298
218	0xbca9dba4	-0.020734616
219	0x3ca2e453	0.019884264
220	0xbd20b73b	-0.039237242
221	0xbd0e876e	-0.034797125
222	0x3d4f5299	0.05061588
223	0x3d0bb1d5	0.03410514
224	0x3d9a8627	0.07545119
225	0x3cc9d5c3	0.024638062
226	0x3d04fc5d	0.032467235
227	0x3c5cdc04	0.01348019
228	0xbd4e39e5	-0.05034818
229	0x3c65137b	0.013981695
230	0xbd41dad6	-0.04732784
231	0xbd0592c9	-0.03261069
232	0x3cfd00b2	0.03088412
233	0xbbbe2163	-0.00580232
234	0xbd0dcf78	-0.034621686
235	0xbcb7f1c1	-0.022454144
236	0xbd274b0a	-0.040843047
237	0x3d55fc11	0.052242342
238	0xbd6a43a5	-0.057193417
239	0xbaa5bb5e	-0.0012644341
240	0xbcf63843	-0.030056125
241	0xbc5b3349	-0.013378927
242	0x3cb4b05d	0.022056753
243	0xba831274	-0.0010000006
244	0x3ca7976d	0.020457948
245	0xbd395347	-0.045245435
246	0x3be6b6b3	0.0070408224
247	0x3d04178a	0.03224901
248	0xbc8337f7	-0.016017897
249	0xbc851346	-0.016244542
250	0xbbee0fc2	-0.007265062
251	0x3d25d8f3	0.040490102
252	0x3cd98929	0.02655466
253	0x3c613c0f	0.013747229
254	0x3bd3a0de	0.006458386
255	0x3cbbcff2	0.022926304

conv6.bias f4 [64]
0	0x3d7d5535	0.061848838
1	0xbd3112bf	-0.04323077
2	0x3d02f589	0.03197244
3	0xbcb76377	-0.022386296
4	0xbcf1a271	-0.029496403
5	0xbd48d01a	-0.049026586
6	0xbd085060	-0.033279777
7	0x3bb09bd1	0.0053896685
8	0xbcd106ba	-0.025515903
9	0xbc2005b8	-0.009766988
10	0xbd5270e7	-0.051377203
11	0xbbe5327f	-0.006994545
12	0xbc0d791d	-0.008634833
13	0xba319167	-0.0006773681
14	0x3d242320	0.04007256
15	0x3d564a97	0.05231723
16	0x3cc03270	0.02346155
17	0x3d0b584d	0.034019757
18	0xbd7411c3	-0.05958725
19	0x3baf494b	0.0053493134
20	0x3cb6f1cb	0.022332093
21	0x3c82b367	0.015954686
22	0x3c747da0	0.014922529
23	0xbd48dff4	-0.049041703
24	0xbd769ccf	-0.060208138
25	0xbd07b0ac	-0.03312747
26	0xbd0ca004	-0.03433229
27	0xbd163c95	-0.03667887
28	0x3d1fbf12	0.03900058
29	0xbd4227eb	-0.04740135
30	0x3c9b1ea4	0.018935509
31	0x3d1fa047	0.03897121
32	0x3cee08c3	0.029056912
33	0x3cf0b8a3	0.029384917
34	0xbd062f17	-0.032759752
35	0xbd018d50	-0.031628907
36	0xbd2bd540	-0.041951418
37	0x3d6e5166	0.058183096
38	0xbd76696b	-0.06015913
39	0x3d3a71f9	0.04551885
40	0x3d05426c	0.032534048
41	0xbd2c30b6	-0.042038642
42	0xbd0e97f7	-0.034812894
43	0xbd5ea00b	-0.054351848
44	0xbd4b6dc5	-0.04966523
45	0x3d2d2ffd	0.042282093
46	0xba0249e9	-0.000497012
47	0xbd02ac49	-0.031902585
48	0x3d3d5f08	0.046233207
49	0x3d67280f	0.056434687
50	0x3cacd4a1	0.021097483
51	0x3d03d988	0.032189876
52	0x3d13127b	0.035906296
53	0x3c1d3f93	0.009597677
54	0xbcc6d8ca	-0.024273295
55	0x3d21e75d	0.039527286
56	0xbd2a981a	-0.04164896
57	0x3d7d02ad	0.06177013
58	0xbcfdb297	-0.030968947
59	0xbc92b8a8	-0.017910317
60	0x3d4ac880	0.049507618
61	0xbd615b49	-0.055018697
62	0x3d68e7d8	0.05686173
63	0x3c760095	0.015014787
