models/tabuk.pth (torch, 156539 bytes, 8 tensors)

weight f4 [32, 3, 3, 3]
0	0x3db4dd76	0.08831303
1	0x3d51ea86	0.05124905
2	0x3da06702	0.07832147
3	0x3dc38004	0.095459014
4	0x3d81d1f3	0.06338873
5	0xbcd8eabc	-0.026479118
6	0x3e351571	0.1768396
7	0xbdbfb374	-0.093604
8	0x3de1706e	0.110077724
9	0xbc5044da	-0.012711728
10	0xbddb6115	-0.10711876
11	0xbdf68d3c	-0.12038657
12	0xbc4ef1d9	-0.012630903
13	0x3d603f70	0.054748
14	0x3e256043	0.16150002
15	0x3db3cf4b	0.08779772
16	0x3d5c1eb1	0.053740207
17	0xbdec477d	-0.11537073
18	0x3d961469	0.07328112
19	0x3dabc269	0.0838669
20	0x3dd33a14	0.10313812
21	0x3e0aa8cc	0.13540953
22	0xbdcc6534	-0.099802405
23	0x3db480ef	0.08813655
24	0x3d89a75d	0.06721375
25	0xbd9723f7	-0.073799066
26	0xbe1fee0c	-0.15618151
27	0x3df0b54a	0.11753328
28	0xbd20be00	-0.039243698
29	0xbd143a01	-0.03618813
30	0xbd10d3bd	-0.03535818
31	0xbe3829ea	-0.17984739
32	0x3d3b3c0f	0.045711573
33	0x3dc923ba	0.098212674
34	0xbdc51dbf	-0.09624814
35	0x3d892d0f	0.06698047
36	0x3e0d9f4a	0.13830295
37	0xbc0819a6	-0.008306896
38	0xbce4ab02	-0.027913574
39	0x3e23c3ce	0.15992662
40	0x3e0496f6	0.12948212
41	0xbd155bcc	-0.036464497
42	0xbcf3df56	-0.02976958
43	0xbe0082ab	-0.12549846
44	0xbdeb8f50	-0.11501944
45	0x3e0ec976	0.13944039
46	0xbe4b9093	-0.1987937
47	0xbde531e5	-0.11191157
48	0x3e085c9c	0.13316578
49	0x3c9ca128	0.019119814
50	0xbda69dd2	-0.081355706
51	0xbc1366a7	-0.008996642
52	0x3e1694fd	0.14705272
53	0x3e38041b	0.17970316
54	0x3c92e910	0.017933398
55	0x3d9539cd	0.07286415
56	0xbdb3d42c	-0.08780703
57	0xbe3f9f84	-0.18713194
58	0x3e1d03e2	0.15333512
59	0x3da4b337	0.08041995
60	0xbc995626	-0.018717837
61	0xbdf8ba69	-0.1214493
62	0x3d99073e	0.074720845
63	0xbd42870f	-0.047492083
64	0xbd46731e	-0.048449628
65	0xbb8c35af	-0.0042788605
66	0x3df3d681	0.11906148
67	0xbdc023cb	-0.09381827
68	0x3e14ab9d	0.1451859
69	0x3ac08fb1	0.0014691261
70	0xbd06d24d	-0.032915402
71	0x3c8ede0b	0.017439863
72	0xbc52110d	-0.012821448
73	0xbe21c9ac	-0.15799588
74	0xbdc1e942	-0.094683185
75	0xbe2b91bb	-0.1675481
76	0x3e2aee00	0.16692352
77	0x3dd7394d	0.10508976
78	0xbd4be12c	-0.049775288
79	0xbe36bc25	-0.17845209
80	0x3c7e9942	0.015539469
81	0xbd378210	-0.04480177
82	0xbc08e4d5	-0.008355339
83	0xbe16851f	-0.14699219
84	0x3de616c5	0.11234812
85	0xbe53717f	-0.20648764
86	0xbe3dd9ff	-0.1854019
87	0x3d93cdbc	0.07216975
88	0x3dc46357	0.0958926
89	0xbe108484	-0.1411305
90	0xbdb22403	-0.08698275
91	0xbe048c44	-0.12944132
92	0xbd2aced9	-0.04170117
93	0x3d5481c9	0.051881585
94	0xbae66088	-0.0017576376
95	0xbe17ac48	-0.14811814
96	0x3c31a2ae	0.0108420085
97	0xbd51f547	-0.051259305
98	0x3e103ae3	0.14084964
99	0x3d9f0e5f	0.07766413
100	0xbe32acc8	-0.17448723
101	0x3d536e72	0.051619
102	0x3df4f86a	0.11961444
103	0x3db1c60f	0.08680355
104	0x3da8362d	0.08213458
105	0xbd20cfdc	-0.03926073
106	0xbe3747f1	-0.17898537
107	0xbe4ad051	-0.19806029
108	0xbe242981	-0.16031457
109	0x3dcfc298	0.10144538
110	0xbe270f97	-0.16314541
111	0x3dbfee79	0.09371657
112	0xbdace9f8	-0.084430635
113	0xbb625ae8	-0.0034539048
114	0xbe315dae	-0.17320892
115	0xbd987aea	-0.07445319
116	0xbe01c0e6	-0.12671241
117	0xbe51d1b8	-0.20490158
118	0x3cda3a28	0.02663906
119	0xbe13857e	-0.14406392
120	0x3d260af8	0.040537804
121	0x3c36f039	0.011165672
122	0x3e294b69	0.16532673
123	0xbdbb5732	-0.091474906
124	0xbe5267c2	-0.20547393
125	0xbe4ec9ff	-0.20194243
126	0xbe265e92	-0.16247013
127	0xbddce7ef	-0.10786425
128	0xbdc03d65	-0.0938671
129	0xbe240477	-0.16017328
130	0x3d244c33	0.04011173
131	0xbe1be30e	-0.15223333
132	0xbdb04bd1	-0.08608211
133	0xbe4d6b3a	-0.20060435
134	0x3dca1dc8	0.098689616
135	0x3e429154	0.19000751
136	0xbd1d7950	-0.03844577
137	0xbcc967c8	-0.02458562
138	0xbd4536dc	-0.04814802
139	0xb98423a9	-0.0002520357
140	0x3e3380ea	0.17529646
141	0x3d7e80cd	0.062134553
142	0x3dcc94d6	0.09989326
143	0x3d91f896	0.07127492
144	0x3d5ca8d6	0.053871952
145	0xbd68b804	-0.056816116
146	0x3e06591e	0.13119933
147	0xbe0032b7	-0.12519346
148	0x3de103a3	0.10987022
149	0xbe0a9a96	-0.13535532
150	0xbd7423a7	-0.059604313
151	0xbd9bad6d	-0.07601438
152	0xbe369bd0	-0.17832875
153	0x3e08a138	0.1334275
154	0xbd68f4ec	-0.0568742
155	0xbcaf014d	-0.021362925
156	0xbc50b74d	-0.012739015
157	0x3c5163ae	0.012780113
158	0x3b956ef0	0.004560344
159	0x3e32b8f1	0.17453362
160	0xb9495e42	-0.00019203968
161	0x3e3c38bf	0.18381022
162	0x3e2eb060	0.17059469
163	0xbd2063a1	-0.039157514
164	0xbc9572af	-0.018243162
165	0x3d592631	0.053014938
166	0x3e345c0f	0.17613243
167	0xbe3b1664	-0.1827026
168	0xbd43b18a	-0.047776736
169	0x3e301ca0	0.1719842
170	0xbe0c755e	-0.13716647
171	0xbd76a8f6	-0.060219727
172	0xbc1162e9	-0.00887368
173	0x3d89fa46	0.06737189
174	0xbc128930	-0.008943841
175	0xbc3c8155	-0.0115054445
176	0xbd8434f1	-0.0645541
177	0xbded9df6	-0.11602394
178	0x3d7d5a37	0.061853614
179	0xbe1e0b92	-0.15434101
180	0x3d05fe6e	0.032713346
181	0x3d93d8fe	0.07219122
182	0xbe35e85b	-0.17764418
183	0x3d6bf2ce	0.057604603
184	0x3e2befeb	0.1679074
185	0xbd78a60f	-0.06070524
186	0xbd69811b	-0.05700789
187	0x3e02b425	0.12764032
188	0x3e046774	0.12930089
189	0xbe4709c5	-0.1943732
190	0xbd9713bb	-0.0737681
191	0xbdf5a65b	-0.119946204
192	0x3df02132	0.117250815
193	0xbe236233	-0.15955429
194	0xbdcd6033	-0.10028114
195	0xbdb7d4f4	-0.089761645
196	0xbe37b143	-0.17938714
197	0x3e03f357	0.12885796
198	0xbd1ab81a	-0.03777323
199	0xbe52e714	-0.20595962
200	0x3c58c624	0.013230834
201	0x3e2d0f0e	0.16900274
202	0xbdf0ca16	-0.11757295
203	0x3da2679e	0.0792992
204	0xbe39498e	-0.18094465
205	0xbdb62375	-0.08893482
206	0x3d2ea0f9	0.042633984
207	0xbda03201	-0.078220375
208	0x3dc31ea3	0.09527328
209	0x3d4994ce	0.049214177
210	0x3cc27fd8	0.023742601
211	0x3dd11906	0.10209851
212	0xbcba41fe	-0.022736546
213	0xbe3a7cf8	-0.18211734
214	0xbd1b48b8	-0.037911147
215	0xbb616d96	-0.0034397594
216	0x3e1832d2	0.14863136
217	0xbdca8362	-0.098883405
218	0x3dc4f5bd	0.09617183
219	0xbde15002	-0.110015884
220	0xbd815faf	-0.06317078
221	0xbdce2d13	-0.10067191
222	0xbd888245	-0.06665472
223	0x3d31eec7	0.043440606
224	0xbd83c071	-0.0643319
225	0xbe12a670	-0.14321303
226	0x3e33378d	0.1750166
227	0xbda54423	-0.08069637
228	0x3e20875e	0.15676638
229	0xbd4ab22c	-0.049486324
230	0x3d70614f	0.05868655
231	0xbd457b3a	-0.04821322
232	0x3c1fb8ae	0.009748621
233	0x3db279ed	0.08714662
234	0x3dca2bc2	0.098716274
235	0x3e13ce55	0.14434178
236	0x3e2293ae	0.15876648
237	0xbcdabfe4	-0.026702829
238	0x3da0dd36	0.07854693
239	0xbe27ba50	-0.16379666
240	0x3c3b57b9	0.011434489
241	0xbe14802e	-0.14502022
242	0x3dbb8194	0.091555744
243	0xbdf94bf1	-0.12172688
244	0xbd942e9c	-0.072354525
245	0x3e4fdf29	0.20299973
246	0x3e50a339	0.20374765
247	0xbdd43029	-0.10360748
248	0x3d25b05a	0.040451385
249	0xbe3617e9	-0.17782559
250	0x3d77cf44	0.0605004
251	0xbdbe05e3	-0.092784666
252	0x3d89f772	0.067366496
253	0xbd4d2084	-0.050079837
254	0x3e3731bb	0.17890064
255	0x3dcfedb5	0.10152761

bias f4 [32]
0	0xbddd73bc	-0.1081309
1	0xbde4c3f8	-0.111701906
2	0xbd836f1f	-0.06417679
3	0xbdff61b8	-0.1246981
4	0x3d9fffb6	0.07812445
5	0xbdf3e257	-0.11908405
6	0x3cb8437e	0.02249312
7	0xbcad5435	-0.021158317
8	0x3e22fcf3	0.15916805
9	0xbe0481b7	-0.12940107
10	0x3da6b4b7	0.08139937
11	0x3def5e99	0.11687965
12	0x3d522221	0.05130208
13	0x3e333a76	0.1750277
14	0xbd44b970	-0.04802841
15	0x3e6c69f0	0.23087287
16	0x3dcea2b3	0.10089626
17	0x3dab9f15	0.08379952
18	0xbe154b4f	-0.14579509
19	0xbe272678	-0.16323268
20	0x3e1d4010	0.15356469
21	0xbcc0120a	-0.023446102
22	0xbe1ad120	-0.15118837
23	0xbe0ab323	-0.13544898
24	0x3e637cb7	0.22215544
25	0xbe350eab	-0.17681377
26	0x3df857f4	0.12126151
27	0xbe2a1651	-0.16610076
28	0x3dee02f8	0.1162166
29	0xbe1c7ef5	-0.15282805
30	0x3da3ad25	0.07992009
31	0xbd426132	-0.047455974

weight f4 [64, 32, 3, 3]
0	0x3c8f4c67	0.017492486
1	0xbd2551b7	-0.040361132
2	0xbccc110d	-0.024910474
3	0x3d2ca5c8	0.04215029
4	0xbcd2f265	-0.025750348
5	0xba7fe0ca	-0.0009760974
6	0x3c88ada3	0.016684359
7	0x3cc405a0	0.023928463
8	0xbceebf9f	-0.029144106
9	0xbc4b5bea	-0.012412051
10	0xbd04cb21	-0.03242028
11	0x3d0a73f7	0.033802
12	0xbcf1121e	-0.029427584
13	0x3c342381	0.010994793
14	0xbd559f37	-0.052153792
15	0x3c535540	0.012898743
16	0x3c5ebf80	0.013595462
17	0x3cc1fff8	0.023681626
18	0x3d521ae1	0.051295165
19	0xbd272624	-0.040807858
20	0x3d5ff607	0.05467799
21	0x3d607ffd	0.05480956
22	0xbc858898	-0.016300485
23	0x3cd06ce8	0.025442556
24	0xbcab8866	-0.020939063
25	0x3d3d2fdc	0.04618822
26	0x3cf1b684	0.029505976
27	0xbcdb1f28	-0.026748255
28	0xbcdd8a86	-0.027043592
29	0x3c504871	0.012712584
30	0xbcafb280	-0.02144742
31	0x3c8544c2	0.016268138
32	0x3c1b4b4c	0.009478401
33	0xbd143fda	-0.036193706
34	0x3c53aab9	0.012919121
35	0x3d7c765d	0.061636318
36	0xbd0e8225	-0.034792084
37	0xbcc07dad	-0.023497427
38	0x3bd7b680	0.006583035
39	0xbd154954	-0.036446884
40	0x3c83a89c	0.01607161
41	0xbd018325	-0.03161921
42	0x3b9b5382	0.0047401795
43	0x3d1728fc	0.03690432
44	0xbd3a7f40	-0.04553151
45	0x3d335ed7	0.04379162
46	0xbd4cbc0d	-0.049984027
47	0x3d85ed2c	0.065393776
48	0x3c2f0aaf	0.0106836995
49	0x3b8e8692	0.004349538
50	0x3c3ed723	0.011647972
51	0x3d2011e4	0.03907956
52	0x3ba54504	0.0050436277
53	0x3d1a7ddf	0.037717696
54	0xbd11ed7d	-0.035626877
55	0xbc5d735c	-0.013516273
56	0x3c3ccba5	0.011523162
57	0x3d5b3df1	0.05352587
58	0xbd6e13d9	-0.058124397
59	0x3b615651	0.0034383724
60	0xbcb3c6a2	-0.021945301
61	0xbc9a4a2a	-0.018834192
62	0xbcc1f822	-0.02367789
63	0x3d58412d	0.05279653
64	0x3d1dfda5	0.038571972
65	0x3d01f0fa	0.031723954
66	0xbd329f1b	-0.043608766
67	0x3d02f7c6	0.031974576
68	0x3d03cbcb	0.032176774
69	0xbd338c6e	-0.043835096
70	0x3d0116b9	0.03151581
71	0x3caaaf15	0.020835439
72	0xbcf0a7cc	-0.029376887
73	0x3c91cd20	0.017798007
74	0xbd406401	-0.04697037
75	0x3ce6a4d5	0.02815477
76	0xbdb782ce	-0.08960496
77	0xbd7d5a24	-0.061853543
78	0x3c2a0c85	0.010378961
79	0x3c7a5802	0.015279772
80	0x3c84f311	0.016229184
81	0x3d6374c2	0.05553127
82	0xbc8fd90d	-0.017559553
83	0x3d573d1f	0.052548524
84	0x3d42e97e	0.047585957
85	0xbbadceb9	-0.0053041843
86	0xbd5a5661	-0.053305034
87	0x3c8b1189	0.016976135
88	0x3d577820	0.052604795
89	0x3cce958b	0.025217792
90	0xbd4b4ac5	-0.049631853
91	0x3c4f90b6	0.012668779
92	0x3d7ae936	0.061257564
93	0x3cd98a70	0.02655527
94	0xbd30e16e	-0.043183737
95	0xbd1ad831	-0.037803832
96	0xbb1fd825	-0.0024390307
97	0x3cc106dd	0.023562843
98	0x3cc22644	0.023699887
99	0xbab01b80	-0.001343593
100	0x3d1bfe56	0.03808435
101	0xbd1e4c76	-0.038647138
102	0xbc70bddf	-0.014693706
103	0xbd3b4f57	-0.04572996
104	0x3cbd59ad	0.02311405
105	0x3d04acca	0.032391347
106	0x3c901618	0.01758866
107	0xbd19acaa	-0.03751818
108	0x3d243d22	0.040097363
109	0xbd616fa9	-0.055038128
110	0x3cd63e79	0.026152836
111	0x3d2f8f7e	0.042861454
112	0xbc93fa14	-0.018063582
113	0x3d338e63	0.043836962
114	0xbcbbfc86	-0.022947561
115	0xbcb75b16	-0.0223823
116	0xbc6cf269	-0.014462092
117	0x3d8af929	0.06785805
118	0xbd49871d	-0.04920112
119	0x3ce7175b	0.028209379
120	0x3cd8a9c1	0.026448132
121	0x3d931dea	0.0718344
122	0x3d853f1b	0.06506177
123	0x3a28dfe2	0.00064420525
124	0xbd42602a	-0.04745499
125	0xbce3a20c	-0.02778723
126	0xbbf4f92f	-0.007475994
127	0xbc695c14	-0.014243145
128	0xbd312bf5	-0.04325481
129	0xbd30f2f1	-0.043200437
130	0xbb9ed3a4	-0.004847007
131	0xbb2ffadc	-0.0026852405
132	0x3d076cba	0.033062674
133	0x3cd57267	0.026055528
134	0xbd81dfd4	-0.0634152
135	0x3cbc0392	0.022950921
136	0xbd4e1b70	-0.050319135
137	0x3d6ba07b	0.057526093
138	0xbd30efbb	-0.043197375
139	0x3d342469	0.043980036
140	0x3d94e64a	0.07270487
141	0xbca34382	-0.019929651
142	0xbc076726	-0.008264339
143	0x3ccdd35b	0.025125196
144	0xbc77bd8c	-0.015120875
145	0xbcf8936f	-0.03034374
146	0xbc14bddb	-0.009078468
147	0xbd31680f	-0.04331213
148	0x3c621a7a	0.013800258
149	0xbd090056	-0.033447586
150	0x3d1d9986	0.03847649
151	0x3d4bedd4	0.049787357
152	0x3c9e3bf5	0.0193157
153	0xbd1764b9	-0.03696129
154	0xbbc46d16	-0.0059944494
155	0xbc65f3fb	-0.01403522
156	0x3ce9fb30	0.028562158
157	0xbada8a1c	-0.001667324
158	0xba232c85	-0.00062245905
159	0xba52e7d6	-0.00080454105
160	0xbd15f546	-0.036610864
161	0xbc11a130	-0.008888528
162	0x3cac8156	0.021057766
163	0x3ca81a14	0.020520248
164	0xbd4f8dd1	-0.050672356
165	0x3c276a89	0.010218271
166	0x3cecfb7d	0.028928513
167	0xbba0327d	-0.004888831
168	0xbc27a2cd	-0.010231686
169	0xbd6140b7	-0.054993358
170	0xbd54076c	-0.05176489
171	0xbd01ad71	-0.031659547
172	0x3d645d4f	0.05575305
173	0x3d8198fd	0.06328008
174	0xbd1f500e	-0.038894705
175	0xbd314c9c	-0.04328595
176	0xbca5b244	-0.020226605
177	0xbd313d57	-0.04327139
178	0xbb07a07c	-0.0020695021
179	0xbcf064be	-0.029344913
180	0x3cc1eaa2	0.023671452
181	0xbd5cc15e	-0.053895347
182	0xbaffec87	-0.0019525447
183	0xbb90f4e3	-0.004423724
184	0x3cf8f71c	0.030391268
185	0xbd087598	-0.03331527
186	0x3c831328	0.016000345
187	0x3d5669ae	0.052346878
188	0x3d0013ba	0.031268813
189	0xbc54155b	-0.012944545
190	0x3c985e67	0.018599702
191	0x3b80624f	0.0039179693
192	0xbd06c1b2	-0.032899566
193	0x3d1f9840	0.038963556
194	0x3d811109	0.06302077
195	0xbcc6603d	-0.024215812
196	0x3cb9d661	0.022685232
197	0x3d0a702b	0.033798378
198	0x3bf05063	0.0073338016
199	0x3ceb5dbe	0.028731223
200	0xbca7e663	-0.0204956
201	0x3d607ae6	0.054804705
202	0xbd417f8f	-0.04724079
203	0x3d18e909	0.037331615
204	0x3c93af44	0.01802791
205	0xbc22b00b	-0.009929667
206	0x3cfc7c67	0.030821038
207	0x3cf32d74	0.02968476
208	0xbcaeab0d	-0.021321798
209	0xbc757af9	-0.014982932
210	0x3d7f88f7	0.06238648
211	0x3b8f9281	0.0043814783
212	0xbd480d9f	-0.048841115
213	0x3d800f5f	0.06252932
214	0x3c4e9258	0.012608133
215	0x3d79e3d2	0.061008282
216	0x3d1cf870	0.038322866
217	0xbccf4b75	-0.025304535
218	0xbd172ed9	-0.03690991
219	0x3d272640	0.040807962
220	0x3cc49ff5	0.024002055
221	0x3d334d55	0.04377492
222	0xbd57d2fa	-0.052691437
223	0x3c97fbdc	0.018552713
224	0xbda9064b	-0.082531534
225	0xbca29e6c	-0.019850932
226	0x3d6f6414	0.05844505
227	0x3c51ddab	0.012809197
228	0xbd47417a	-0.048646428
229	0xbbb77764	-0.0055989493
230	0xbd5ec8c2	-0.054390676
231	0xbd3d05ca	-0.0461481
232	0xbcf99260	-0.030465305
233	0x3d2d56c8	0.04231909
234	0x3d4908b4	0.049080566
235	0x3d59308d	0.053024817
236	0xbc8c3834	-0.017116643
237	0x3c80164a	0.015635628
238	0xbd532b60	-0.051555037
239	0xbcbffd0f	-0.023436097
240	0xbcd865c9	-0.026415722
241	0x39b297a8	0.00034063798
242	0x3d2740c6	0.040833257
243	0x3cd108af	0.025516836
244	0x3cd35673	0.025798058
245	0xba8cac93	-0.0010732583
246	0xbc493811	-0.012281434
247	0xbd7a092a	-0.061043896
248	0xbb154d3a	-0.0022781626
249	0xbcbe96dd	-0.023265297
250	0xbd37a154	-0.04483159
251	0x3d2cdfdd	0.04220568
252	0x3bbd8d7e	0.0057846894
253	0xbca7e3b2	-0.020494316
254	0x3d0a89b5	0.033822734
255	0x3c736a19	0.014856839

bias f4 [64]
0	0x3ada4ade	0.0016654392
1	0x3cc62640	0.02418816
2	0xbc212dc3	-0.009837571
3	0xbdacd272	-0.08438577
4	0x3d99b251	0.07504714
5	0xba979a53	-0.0011566378
6	0x3d0683cd	0.03284054
7	0x3c230554	0.009950001
8	0xbb16ce94	-0.0023011314
9	0x3c875fb9	0.016525136
10	0xbb60bf4b	-0.0034293707
11	0xbcaac645	-0.020846495
12	0xbd252247	-0.040315893
13	0xbbd722e2	-0.0065654377
14	0x3c855ab2	0.016278598
15	0xbd2d4fdb	-0.042312484
16	0x3ca8b28b	0.020592948
17	0x3d40c3b2	0.04706163
18	0xbd57f3d9	-0.052722786
19	0xbc971b92	-0.018445764
20	0x39336f0e	0.00017112141
21	0x3d6a506f	0.057205614
22	0x3db0b69b	0.08628579
23	0xbcc6c3e5	-0.024263332
24	0x3d5c008d	0.053711463
25	0xbcb5f7e4	-0.02221293
26	0x3c8ad5ff	0.016947744
27	0x3cdd1ad1	0.026990326
28	0xbc8c9487	-0.017160667
29	0xbd991ec2	-0.0747657
30	0x3cc71dcf	0.024306206
31	0x3c468313	0.0121162115
32	0xbd353094	-0.04423578
33	0xbd82150c	-0.063516706
34	0x3c7ee2b3	0.015556979
35	0xbd22f726	-0.03978648
36	0x3bf6420e	0.0075151986
37	0x3c5b51d5	0.0133862095
38	0xbcb38915	-0.021915952
39	0x3d0a8308	0.033816367
40	0xbc215101	-0.009845973
41	0x3d12305c	0.03569065
42	0x3d18d104	0.037308708
43	0xbd21da40	-0.03951478
44	0x3d7537a0	0.0598675
45	0x3dbf5002	0.09341432
46	0xbd8d93b4	-0.06912938
47	0xbca099db	-0.019604614
48	0x3d62061f	0.05518162
49	0x3daf0e0e	0.085476026
50	0xbccce9f9	-0.02501391
51	0xbda14ee4	-0.07876375
52	0x3bfb9ccd	0.007678604
53	0x3d1c421b	0.03814898
54	0xbc57c234	-0.01316886
55	0x3b5bbc4d	0.0033528984
56	0xbcc03fac	-0.023467861
57	0xbccf8b9c	-0.025335126
58	0x3d6869ec	0.05674164
59	0xbd707d50	-0.058713257
60	0xbcf93dce	-0.030424979
61	0xba881894	-0.0010383301
62	0xbd0b7a64	-0.034052268
63	0x3c0bcb75	0.008532395

weight f4 [32, 64, 3, 3]
0	0xbab834ed	-0.0014053859
1	0xbbc3b86e	-0.0059729135
2	0x3c8eafa4	0.017417736
3	0x3d971283	0.07376578
4	0xbd662d98	-0.056195825
5	0xbc310670	-0.0108047575
6	0x3d2b437a	0.041812398
7	0x3bc120e6	0.0058938144
8	0xbb9f7158	-0.0048658065
9	0xb96c185b	-0.00022515787
10	0x3c95432d	0.018220508
11	0x3c4fb8ee	0.012678368
12	0x3c5d85d7	0.013520679
13	0x39d8c4cf	0.00041345364
14	0xbd2bd705	-0.041953105
15	0x3cf5604b	0.029953143
16	0x3d84254f	0.064524285
17	0x3c26f640	0.0101905465
18	0x3cd7a1b8	0.02632223
19	0x3cb0a69a	0.021563817
20	0xbc2234f9	-0.009900325
21	0xbd3e5acf	-0.04647332
22	0x3d058302	0.032595642
23	0x3d238643	0.039922964
24	0xbcf97a81	-0.030453922
25	0x3d54744f	0.051868733
26	0x3c24fcaa	0.010070005
27	0x3a36c0a2	0.00069714535
28	0xbbfab234	-0.007650638
29	0xbca104a6	-0.019655537
30	0xbcc8e367	-0.024522496
31	0x3ca41c20	0.020032942
32	0xbbb50ca9	-0.005525191
33	0x3c01bf87	0.007919199
34	0xbc9db36b	-0.019250592
35	0xbcdbb4f1	-0.026819678
36	0xbb38373c	-0.0028109094
37	0x3cb898d0	0.022533804
38	0x3cefb29e	0.029259976
39	0xbd1cf798	-0.03832206
40	0x3d43699c	0.04770814
41	0xbc96fbc2	-0.018430594
42	0xbb02fd48	-0.0019987393
43	0xbc237ea4	-0.009978924
44	0xbcb739a1	-0.022366347
45	0x3cb92181	0.022598984
46	0xbd618ed5	-0.055067856
47	0xbd07841a	-0.033084966
48	0x3c3536ef	0.0110604605
49	0xbbdd0fcf	-0.0067462693
50	0xbd0482f4	-0.03235145
51	0xbc183d54	-0.0092919655
52	0x3c803998	0.015652463
53	0x3c45bdc8	0.012069173
54	0x3d16f6ec	0.036856577
55	0x3d0c2ac1	0.03422046
56	0x3ce8ab35	0.02840195
57	0x3d1e90df	0.03871238
58	0xbd59a805	-0.05313875
59	0x3ccc8442	0.02496541
60	0x3bdf8155	0.0068208375
61	0x3c1c1a02	0.009527685
62	0xbc49d651	-0.012319163
63	0x3ca4f565	0.020136544
64	0x3c8f7156	0.017510097
65	0x3ca4216b	0.020035466
66	0x3d639d82	0.055570133
67	0x3ca29170	0.01984474
68	0x3ca63c2d	0.020292366
69	0x3d3b3d9f	0.045713063
70	0x3d27624b	0.040865224
71	0xbd155c64	-0.036465064
72	0xbcc28001	-0.023742678
73	0x3d4885f9	0.04895589
74	0xbbcabaec	-0.0061868336
75	0x3d03f50e	0.032216124
76	0x3ccc8ee1	0.024970474
77	0x3cbe52e0	0.023232877
78	0x3ce519f4	0.027966477
79	0x3c17b3d1	0.00925918
80	0x3cd0ae92	0.025473867
81	0x3a9445b3	0.0011312276
82	0xbd4c6b08	-0.04990676
83	0x3bdc6f59	0.006727141
84	0x3ce2c5ee	0.02768227
85	0xbd53feb8	-0.05175659
86	0xbd4621f8	-0.04837224
87	0x3beb4319	0.0071796295
88	0x3bd41fa3	0.006473498
89	0xbc58ed43	-0.013240161
90	0x3c8f15e0	0.017466486
91	0x3ca9c0bf	0.020721791
92	0xbcf9de0f	-0.030501394
93	0x3d57e023	0.052703988
94	0x3cfb6a9a	0.03069048
95	0x3ccc9e5b	0.024977854
96	0x3cb34e0c	0.021887802
97	0x3c8ce3ee	0.01719853
98	0x3cc1a6fc	0.023639195
99	0xbd289071	-0.041153375
100	0xbd454bc6	-0.048167966
101	0x3d17cc42	0.03706003
102	0xbb65169b	-0.00349561
103	0xbcf7604a	-0.030197281
104	0x3cb0c045	0.021576056
105	0x3cc651a5	0.024208853
106	0xbc382a4e	-0.011240555
107	0x3d0ba04b	0.034088414
108	0xbc58e5b0	-0.0132383555
109	0xbb7d05f7	-0.0038608292
110	0x3ca053fa	0.019571293
111	0x3c928fa4	0.017890759
112	0x3cc6094e	0.024174359
113	0xbd3978f4	-0.045281366
114	0xbb44ca27	-0.0030027719
115	0xbcb08ee6	-0.021552514
116	0x3d453099	0.04814205
117	0xbd3559fa	-0.04427526
118	0xbd2109e5	-0.039316077
119	0x3d61d462	0.055134185
120	0xbc25efe6	-0.010127997
121	0x3c4791e0	0.012180775
122	0xb9ed5e8a	-0.000452746
123	0xbd55496f	-0.052071985
124	0x3a574462	0.0008211789
125	0x3c7a49e1	0.015276403
126	0x3cca8cf5	0.024725417
127	0xbd6669a4	-0.05625309
128	0x3aacf932	0.0013196825
129	0xbcfd3694	-0.030909814
130	0xbd7af4e0	-0.061268687
131	0xbd2f1e91	-0.04275376
132	0x3da57520	0.080789804
133	0xbd10c31b	-0.035342317
134	0xbc8e5702	-0.017375473
135	0xbc5c0f1d	-0.013431338
136	0xbd1cb7be	-0.038261168
137	0xbd0ac685	-0.03388073
138	0xbbd4aae3	-0.006490098
139	0xbce02839	-0.02736293
140	0x3c069289	0.008213648
141	0x3d7604d9	0.060063217
142	0x3bed1723	0.007235424
143	0xbc5e3f09	-0.013564833
144	0x3ca3095c	0.019901924
145	0xbbc5eeee	-0.0060404455
146	0x3ccabd60	0.024748504
147	0xbcf64a8f	-0.03006485
148	0xbd814951	-0.06312812
149	0xbc91755d	-0.017756158
150	0x3d3e8708	0.046515495
151	0xbd14c7be	-0.0363233
152	0xbca584d9	-0.020204948
153	0x3c391435	0.011296322
154	0xbd340fff	-0.043960568
155	0x3cefd832	0.029277895
156	0x3d5fcb5c	0.054637298
157	0xbd45359d	-0.048146833
158	0xbb2572e7	-0.002524549
159	0xbbcb9c31	-0.006213688
160	0xbca4345b	-0.020044496
161	0x3cdeca66	0.02719612
162	0x3b0357a4	0.0020041252
163	0x3bad4fef	0.00528907
164	0xbc15f7d7	-0.009153328
165	0x3b8f5f29	0.0043753576
166	0x3b5646c1	0.0032695981
167	0x3b5eba38	0.0033985507
168	0x3cc4383f	0.023952601
169	0xbca25708	-0.01981689
170	0x3cf41deb	0.029799422
171	0x3c7b5e6a	0.015342334
172	0xbc13b8a5	-0.009016191
173	0xbcd92759	-0.02650802
174	0x3cf73dc2	0.030180816
175	0x3c41d0b3	0.011829543
176	0xbd36cb3e	-0.04462742
177	0x3d0c80cf	0.03430253
178	0x3b805505	0.003916385
179	0x3d205fb3	0.039153766
180	0xbd129e83	-0.0357957
181	0xbccf3624	-0.025294371
182	0x3c87671c	0.016528659
183	0xbd1b1a0a	-0.03786663
184	0x3c581d75	0.013190617
185	0xbabf1ad2	-0.0014580137
186	0x3c7b9705	0.01535583
187	0xbc047cfc	-0.008086439
188	0x3d0dad4d	0.0345891
189	0xbd5dabf0	-0.05411905
190	0x3ce34b5d	0.027745897
191	0xbcafd314	-0.021462955
192	0xbd6e18d1	-0.058129136
193	0xbcf44d4a	-0.02982201
194	0x3c8f01fe	0.017457005
195	0xbd1c94a0	-0.038227677
196	0x3c9a5cb0	0.018843025
197	0x3ccf8816	0.025333446
198	0x3d3b5368	0.04573384
199	0xbd707728	-0.058707386
200	0xbd82731b	-0.06369611
201	0x3c7b6dc4	0.015345994
202	0xbc5eac4d	-0.013590884
203	0xbcec4634	-0.02884207
204	0xbc17ba1e	-0.009260682
205	0xbd3522de	-0.044222705
206	0x3cac37e2	0.02102274
207	0xbd07a314	-0.033114508
208	0x3d226e99	0.039656255
209	0x3d28ba20	0.041193128
210	0x3bb974e9	0.0056596887
211	0x3cc602b6	0.024171215
212	0x3ca18927	0.01971872
213	0xbc8448a7	-0.016147925
214	0xbc82c630	-0.015963644
215	0x3c1eed90	0.009700194
216	0x3ca13438	0.01967822
217	0xbb73d457	-0.0037205422
218	0xbd4129f0	-0.047159135
219	0x3d7488b8	0.059700698
220	0xbd88b975	-0.06675998
221	0xbd2fed9f	-0.042951223
222	0x3daae36f	0.08344161
223	0xbb4376cd	-0.002982545
224	0x3d4176f5	0.047232587
225	0x3d1e47fa	0.03864286
226	0x3d806e3a	0.06271024
227	0x3b9ed80a	0.004847531
228	0xbce3619e	-0.027756508
229	0x3c838bf4	0.016057946
230	0xb9b07b12	-0.0003366103
231	0xbca9e1a5	-0.020737479
232	0x3d563cce	0.05230408
233	0x3d0067c2	0.03134895
234	0x3b8ff10f	0.00439275
235	0x3c33c570	0.010972366
236	0xbd148c6f	-0.03626674
237	0xbd38777c	-0.045035824
238	0xbcc982f2	-0.024598572
239	0xbce2ada5	-0.02767069
240	0xbc85af08	-0.016318813
241	0xbb1a1b08	-0.0023514647
242	0xbc8c61aa	-0.017136414
243	0x3c6a4dc9	0.014300772
244	0x3d4ca279	0.049959633
245	0x3cb4d0de	0.022072252
246	0xbd3542e9	-0.044253264
247	0x3cefe6e2	0.029284898
248	0x3c3eb437	0.011639646
249	0x3ca38b4b	0.019963881
250	0xba83662a	-0.0010024954
251	0x3d061dd2	0.032743283
252	0xbc5b2054	-0.013374407
253	0x3bbfc8d7	0.0058527994
254	0x3d06e088	0.032928973
255	0x3cf89b0c	0.03034737

bias f4 [32]
0	0x39c3a79a	0.0003731817
1	0xbcb7c5ad	-0.022433126
2	0x3ce5370a	0.027980346
3	0x3c57a814	0.013162632
4	0x3d4c2001	0.04983521
5	0x3c028c02	0.007967951
6	0x3d1c7ebc	0.0382068
7	0x3c2bd082	0.010486724
8	0xbd3b4206	-0.04571726
9	0x3cc401f5	0.023926714
10	0xbc15ce3e	-0.00914341
11	0xbd4d6d21	-0.0501529
12	0xbcf4afd6	-0.029869001
13	0x3d4ec4c3	0.050480615
14	0x3c7fa143	0.015602413
15	0xbb4da157	-0.0031376684
16	0xbad0a0e4	-0.001591709
17	0x3cc6eeb7	0.02428375
18	0x3c307293	0.010769504
19	0x3d0176ba	0.031607367
20	0x3bc346b3	0.0059593557
21	0xbd4c652b	-0.04990117
22	0x3cfdc684	0.030978449
23	0x3c82ebaf	0.015981523
24	0xbd369316	-0.044573866
25	0x3d029328	0.03187862
26	0x3c4e2763	0.012582633
27	0xbce91eb5	-0.028457025
28	0x3d17b07f	0.037033554
29	0xba3c852b	-0.00071914744
30	0xbcb30126	-0.021851134
31	0x3c1d019f	0.009582906

weight f4 [3, 64]
0	0x3de4324f	0.11142408
1	0xbe196164	-0.14978558
2	0xbd1782af	-0.036989864
3	0x3d7ce050	0.06173736
4	0xbdbf8142	-0.09350826
5	0x3cced795	0.025249282
6	0x3e046b2c	0.12931508
7	0x394bf196	0.00019449586
8	0xbdb9f825	-0.09080533
9	0x3d24a212	0.040193625
10	0x3dd087d4	0.10182157
11	0xbc40165c	-0.011724081
12	0x3dbca11c	0.09210417
13	0xbd1d8401	-0.038455967
14	0xbdfa017d	-0.12207315
15	0xbddc3470	-0.10752189
16	0xbda97e87	-0.08276086
17	0x3d994a94	0.07484928
18	0x3db0aa95	0.08626286
19	0xbd201eee	-0.039091997
20	0x3c64ab24	0.013956819
21	0x3d00e33d	0.03146671
22	0xbd1db693	-0.038504194
23	0xbba4a255	-0.0050242343
24	0x3d95c79b	0.07313462
25	0xbdc8a32a	-0.09796746
26	0xbe0af921	-0.13571598
27	0x3deefd97	0.11669462
28	0x3dc52985	0.0962706
29	0xbe02ebd0	-0.12785268
30	0xbe077908	-0.13229764
31	0x3d84ba29	0.0648082
32	0xbbd7d4a8	-0.00658663
33	0x3dab4e98	0.083646
34	0xbdfcfaf9	-0.12352557
35	0x3e0bf682	0.13668254
36	0xbd4bb9be	-0.049737684
37	0xbdc6d90c	-0.09709367
38	0x3dce7edd	0.10082791
39	0xbd1afee1	-0.037840728
40	0xbd95483f	-0.072891705
41	0xbde6efab	-0.11276182
42	0x3d83c5aa	0.06434186
43	0x3da10c9f	0.078637354
44	0x3df79485	0.12088875
45	0x3d9aa485	0.07550911
46	0xbdaef40e	-0.085426435
47	0xbd06de7f	-0.032927033
48	0xbdefe7ea	-0.11714156
49	0xbd59ed41	-0.05320478
50	0xbdb3a09c	-0.08770868
51	0xbe0a9526	-0.13533458
52	0x3d41a120	0.0472728
53	0x3d9d4e5b	0.07680961
54	0xbdc5689a	-0.09639092
55	0x3d43c08f	0.04779106
56	0xbd9c5d1f	-0.07634949
57	0x3c8cfcfb	0.017210474
58	0x3db857e3	0.09001138
59	0x3dcec244	0.10095647
60	0xbd99d698	-0.07511634
61	0xbd7ac0aa	-0.061218895
62	0xbe0749d6	-0.1321176
63	0xbcdbc521	-0.026827397
64	0xbda282a0	-0.07935071
65	0x3dcb7233	0.09933891
66	0xbda8df34	-0.082456976
67	0xbdce91e1	-0.10086418
68	0x3cf816d5	0.030284325
69	0xbde073e0	-0.109596014
70	0x3d7f3d82	0.062314518
71	0xbca65e53	-0.02030865
72	0xbcbfe00a	-0.02342226
73	0xbd409e37	-0.047025885
74	0x3d301e3c	0.042997584
75	0x3e02c7a6	0.12771472
76	0xbc81da43	-0.015851146
77	0xbdb9f08a	-0.09079082
78	0xbcc7f48e	-0.024408605
79	0xbdeebbd2	-0.11656918
80	0xbd75bd7b	-0.059995156
81	0xbd2b857d	-0.04187535
82	0x3c4371c5	0.01192898
83	0xbccd42b9	-0.02505623
84	0xbdbe8867	-0.093033604
85	0x3dae2c8b	0.0850459
86	0x3ddfb1a6	0.109225556
87	0xbd586d47	-0.05283859
88	0x3e014e71	0.1262758
89	0x3d65dbd1	0.056117836
90	0xbb201869	-0.0024428612
91	0x3d38a624	0.04508032
92	0x3d124cdd	0.035717834
93	0x3d4258a3	0.04744781
94	0x3dec32c3	0.115331195
95	0xbd8d8872	-0.069107905
96	0xbccffc42	-0.02538884
97	0x3b4634dc	0.003024391
98	0x3df9320b	0.12167748
99	0xbdc81eeb	-0.09771522
100	0xbc56346d	-0.013074023
101	0x3def536b	0.116858326
102	0x3df845fb	0.12122723
103	0x3cb53774	0.022121169
104	0xbcad39d4	-0.021145739
105	0x3dbdbdec	0.0926474
106	0x3e010719	0.12600364
107	0x3cce1813	0.025157964
108	0x3d5cdde4	0.05392255
109	0x3c982fe6	0.018577527
110	0x3d8d5b45	0.06902174
111	0xbddaf69e	-0.1069157
112	0x3ce22707	0.0276065
113	0x3cdecd9d	0.027197653
114	0x3d85fa50	0.06541884
115	0xbd8a0c4a	-0.06740625
116	0x3d98cb13	0.07460608
117	0xbde185f6	-0.11011879
118	0xbb87b900	-0.0041419268
119	0x3bebe199	0.007198524
120	0xbdd2a5f8	-0.10285562
121	0x3bdda4e1	0.00676404
122	0x3d8edf07	0.06976133
123	0x3d337378	0.04381129
124	0xbd7111f4	-0.058855012
125	0xbccd7c38	-0.025083646
126	0xbd120eef	-0.035658773
127	0x3cd28bcd	0.025701428
128	0x3d3d73a3	0.046252858
129	0x3dd43609	0.10361869
130	0x3d11b730	0.03557509
131	0x3d2e3fde	0.042541377
132	0x3db66e02	0.08907701
133	0xbd2bb807	-0.04192355
134	0xbdf0b5a4	-0.11753395
135	0x3d14fd13	0.036374163
136	0xbdc602fb	-0.09668537
137	0xbd00c063	-0.031433474
138	0xbd93368a	-0.07188137
139	0xbd00ebbd	-0.031474818
140	0x3dbd542c	0.0924457
141	0x3cdf63ac	0.027269207
142	0xbe06a527	-0.13148938
143	0x3e076018	0.1322025
144	0xbd77cbdb	-0.060497146
145	0xbdd79ad3	-0.10527577
146	0xbcadd378	-0.021219
147	0xbe02ad98	-0.12761533
148	0x3d93d0cb	0.072175585
149	0x3da8e653	0.08247056
150	0x3dfcc110	0.12341511
151	0xbd960275	-0.073246874
152	0x3de94e05	0.11391834
153	0xbd6ff450	-0.058582604
154	0x3db85aca	0.09001692
155	0xbdfe24e3	-0.12409379
156	0xbcadeb97	-0.021230502
157	0xb9ec814d	-0.00045109764
158	0x3c45be88	0.012069352
159	0x3cd03508	0.025415912
160	0x3de748eb	0.11293205
161	0x3d5b5fcb	0.053558152
162	0x3c97595d	0.018475229
163	0x3d51d7e4	0.05123128
164	0x3d4be476	0.049778424
165	0x3da89586	0.08231644
166	0x3de2a1d2	0.11066021
167	0xbd387b93	-0.045039725
168	0xbdff8acd	-0.12477646
169	0xbc70db1a	-0.014700675
170	0xbd199d3f	-0.037503477
171	0x3c95afaa	0.01827224
172	0x3d9edb5a	0.07756682
173	0x3dc08eeb	0.094022594
174	0xbdc2e06c	-0.09515461
175	0x3d7f65b8	0.062352866
176	0xbd9e7bc8	-0.07738453
177	0x3df006a7	0.11720019
178	0x3d80cdba	0.06289239
179	0x3e06cc0d	0.13163777
180	0x3d72c717	0.059271898
181	0xbd9b3789	-0.07578952
182	0x3dd04be4	0.10170725
183	0x3de882e9	0.11353094
184	0xbd7ceea5	-0.061751027
185	0xbda3dde6	-0.08001308
186	0xbd567ff5	-0.052368123
187	0x3dd84bf2	0.105613604
188	0x3d271509	0.040791545
189	0x3c210c11	0.009829537
190	0x3dfb965a	0.12284537
191	0x3d8a87ca	0.06764181

bias f4 [3]
0	0x3dcc137c	0.09964654
1	0x3de38888	0.11110026
2	0x3da588b7	0.08082717
